results/ppo/FPVBehavior.onnx (onnx, 78267 bytes, 6 tensors)

network_body._body_endoder.seq_layers.0.weight f4 [128, 12]
000000 33 b8 2e 3e 5a c3 d1 3d 76 c9 0f 3e b4 5c 93 be
       0.17062454 0.102423385 0.14041695 -0.28781664
000010 aa 28 8e be 98 10 02 bf ef ad 8f bd f2 d2 98 3e
       -0.277654 -0.5080657 -0.07015597 0.29848439
000020 86 7d 30 bd 95 59 c6 3d 54 a2 ed be 4c bb 8a 3e
       -0.04308846 0.09685055 -0.4641291 0.2709602
000030 8d 82 46 3e b5 4d d8 be 81 bb 17 3e e0 d3 86 3e
       0.19385739 -0.42246786 0.14817621 0.26333523
000040 ab 61 1f be fe 46 e2 bd f6 e6 c7 be 87 ba 8d 3c
       -0.15564601 -0.11048697 -0.39043397 0.017300857
000050 f5 69 75 be 15 da 39 be 4f ec 8e be 9d d1 02 be
       -0.239662 -0.18149598 -0.27914664 -0.12775274
000060 73 55 8b 3e 34 c7 16 bd f6 fb be be 11 73 d5 bd
       0.2721363 -0.03681107 -0.37301606 -0.10422338
000070 28 1f de be 0c b4 0e 3d 2f e5 9e 3e 40 70 94 3e
       -0.43383145 0.034839675 0.31034228 0.2899189
000080 00 58 2a be e3 2c de bc 81 11 f5 3d 3d 21 2b 3e
       -0.16635132 -0.027121013 0.11966229 0.16711898
000090 2b 77 df be 3f 57 70 3e e2 fd de bd e9 d8 35 3d
       -0.43645605 0.23470782 -0.10888268 0.044396315
0000a0 5f 4b 84 bd f2 83 17 be dc cd 0d 3e f6 fe a3 bc
       -0.064596884 -0.14796427 0.1384806 -0.020019036
0000b0 a3 23 40 bd c1 c5 a7 3d c0 7f bd bc da ed 57 3e
       -0.046908986 0.081920154 -0.023132205 0.21086827
0000c0 c9 77 21 be 7b 47 b6 3d 3e fd 18 be b5 61 d5 be
       -0.1576835 0.089003526 -0.14940354 -0.41676107
0000d0 88 08 a0 be 2a 29 24 be 3c 1e 4d be 1b b1 86 3e
       -0.3125651 -0.16031328 -0.20031065 0.26306996
0000e0 ee fa c8 bd 6f 71 a7 be 2f f7 46 be c2 04 cf 3e
       -0.09813486 -0.3270373 -0.1943023 0.40433317
0000f0 c0 f5 86 3e d2 84 3a be 8e 85 81 bc 3e 6d f1 be
       0.26359367 -0.1821473 -0.015810754 -0.47153658
000100 5b e8 1c 3f 11 dd 0f 3f 5c 17 85 3e 5f 42 ca 3c
       0.61292046 0.56196696 0.25994384 0.024689851
000110 42 a8 97 3e 96 af c1 be 4d b7 10 bf 82 53 bc be
       0.29620558 -0.37829274 -0.56529695 -0.3678246
000120 6f da 47 be c0 f5 1e 3c fe 1c 42 3e 59 85 19 bf
       -0.1951692 0.009702146 0.18956372 -0.599691
000130 54 19 bc 3e b7 30 86 bc 2d 23 96 3c c1 c6 83 3e
       0.36738074 -0.01638065 0.01832732 0.25737575
000140 bc 3b 74 bd 1c 54 b5 3e a6 d2 0c 3e bd a2 5f bd
       -0.05962728 0.35415733 0.13752231 -0.05459856
000150 1f 7b 20 bd 5b 26 ee bc 99 05 00 bf 83 56 10 3e
       -0.039179917 -0.029071024 -0.5000854 0.14095502
000160 f8 20 79 be 38 81 2d bc 54 6b 76 3e 3b 2b b3 be
       -0.24328983 -0.01058989 0.2406438 -0.3499392
000170 dd a8 48 3d ff d8 4e be 3c b4 e7 bd 7e e7 5b 3e
       0.048989166 -0.20199965 -0.11313674 0.21475026
000180 98 11 1d 3e 44 b5 14 be b2 fb 48 be 4a 48 8d bd
       0.15338743 -0.14522272 -0.19627264 -0.06898554
000190 da 0a 9b 3d e9 07 c6 be 37 c1 8b 3e 61 33 f7 be
       0.07570429 -0.3867791 0.2729585 -0.48281386
0001a0 cb fc 06 be 01 d1 79 be cc 99 9b 3c 70 44 ca be
       -0.1318237 -0.24396135 0.018994235 -0.3950534
0001b0 a5 6f 25 3e ce 42 2f bd a5 a2 25 be 91 aa c3 3e
       0.1615587 -0.04278832 -0.16175325 0.3821607
0001c0 93 58 0a 3e 85 39 3a 3e da a7 83 3d ce dd 81 3d
       0.13510351 0.18186004 0.064284995 0.06341134
0001d0 4c 41 02 3f f8 ff cc 3d b7 ff ce 3d 60 62 46 3e
       0.50880885 0.1000976 0.101073675 0.19373465
0001e0 f0 30 74 3d 86 aa f8 3e 11 08 1a be b9 31 21 3e
       0.059616983 0.485676 -0.1504214 0.15741624
0001f0 8b f5 13 3f dc a4 0d 3f b5 a8 8e 3e 33 78 0a bf
       0.57796544 0.5532968 0.27863088 -0.5408966
000200 11 4a 8d 3e 2f 46 32 3d 51 f3 16 3f 0a f5 18 be
       0.2759557 0.043523964 0.5896502 -0.14937225
000210 4e 51 5a bf b4 92 6d be e6 fd 91 3e ee d1 bc 3c
       -0.8528031 -0.23200494 0.28514022 0.023049321
000220 c4 9e 37 3e 0b de 76 3e fd c1 8a 3e d3 bf ee 3e
       0.17931658 0.2410814 0.27101126 0.46630725
000230 04 b4 00 3f 54 1e 2b 3d f5 f4 1c be cf 86 fa be
       0.5027468 0.04177697 -0.15327819 -0.48930976
000240 db b2 17 be 62 b3 11 3f 7a dc ec 3e d4 f3 a9 bd
       -0.14814322 0.5691434 0.4626196 -0.0829846
000250 38 72 85 3d 8f 73 4c 3e 35 61 de 3e 25 dd 85 3e
       0.06515926 0.19965957 0.43433538 0.26145282
000260 ae 2d 7d be 53 ab 48 3e 75 72 6c 3e ab e2 34 bc
       -0.24724457 0.19596605 0.23090537 -0.01104037
000270 d7 34 20 be 8a fb 57 bd 68 8f 0e 3e c2 83 2b 3e
       -0.15645157 -0.05273012 0.13921893 0.1674948
000280 07 1a 2f 3e 70 81 be be 3c b1 95 3e 12 dc 78 3d
       0.17099772 -0.37208128 0.29236782 0.06075675
000290 96 ec fd bd 3b e6 3d be be 9c 7e 3e 87 96 42 be
       -0.12398641 -0.18544857 0.2486448 -0.19002734
0002a0 96 d6 95 be 33 38 24 bd 7f cb e1 3c 19 d8 98 3e
       -0.2926528 -0.04009266 0.027562855 0.2985237
0002b0 94 ad 5a 3e 0c 51 9b 3e a2 bb dd 3e f4 03 e6 bd
       0.21355277 0.3033527 0.43307215 -0.11231223
0002c0 2c b3 3e bd f8 7a 75 bd 43 48 54 be 55 57 dc bc
       -0.04655759 -0.059931725 -0.2073069 -0.026897112
0002d0 92 a9 4a 3b b1 0a 00 3f 7e ec d0 3e be 70 a4 3c
       0.0030923826 0.50016314 0.4080543 0.02007329
0002e0 57 33 84 3d 36 65 54 bd a3 f8 1c 3f 36 ec f4 3d
       0.06455105 -0.051854335 0.6131689 0.11959116
0002f0 90 29 59 3e 43 ec 00 3f 76 71 ad bb 14 c0 67 be
       0.21207261 0.50360507 -0.0052930666 -0.22631866
000300 e7 ca 18 3d b2 dd 99 3e fd bb 2d bf 22 52 9d 3c
       0.037302878 0.30051953 -0.6786497 0.019204203
000310 5d fd b1 3e ed 97 85 3e d6 9f 3e 3d cc b0 4d 3e
       0.34763613 0.26092473 0.04653915 0.20086974
000320 90 d0 3b be 17 13 15 3f 57 f1 b1 3e 98 96 13 bd
       -0.18341279 0.58232254 0.3475444 -0.03603229
000330 d0 c6 5f be 22 f5 11 3f f5 cc d2 bb c1 2f ad 3e
       -0.21853185 0.5701467 -0.006433124 0.33825496
000340 d3 fd 80 bd 36 17 87 be 3f 64 64 3e 97 e9 6e 3e
       -0.06298413 -0.26384896 0.22303866 0.23331295
000350 f8 92 c8 3d 5f 05 cf bd e2 24 01 be 6b df f5 bc
       0.09793657 -0.10108446 -0.12611726 -0.03001376
000360 0f f2 eb 3d 01 53 aa 3e a2 8c 6a 3e 43 0c 84 be
       0.115207784 0.33266452 0.2290521 -0.25790605
000370 0c e3 f1 3d 7e bd c3 3d 5c 9c 40 3d 7a cb 1c 3d
       0.11810884 0.09557627 0.047024116 0.038279988
000380 5a 6a fb 3d ac 50 ea 3d 9a e6 b0 3d 27 d8 7c bd
       0.12276144 0.11441168 0.08637734 -0.061729576
000390 fe 6d f9 bd c8 c8 57 be 95 5b c2 be 0a f6 02 3f
       -0.121791825 -0.21072686 -0.37960497 0.51156676
0003a0 6c 64 c4 bd df 2a 7a 3e 9e a9 cc 3e 1d 12 8f 3e
       -0.095894665 0.24430417 0.39973158 0.27943507
0003b0 48 4a d8 bd 03 7e 25 bf 90 33 da bb d5 f5 45 be
       -0.10561043 -0.64645404 -0.0066589788 -0.19332059
0003c0 b4 dd 24 be 3b 39 31 3d a2 99 d1 bd 0f 9e 6b 3f
       -0.16100198 0.04326747 -0.10234381 0.92038053
0003d0 49 ae 18 be 68 a8 d3 3e 6b 1a 44 be cf df 82 3d
       -0.14910235 0.4133942 -0.19150703 0.06390344
0003e0 36 91 96 3e 44 d8 3e 3d 87 95 8a 3e 4a bc 76 3d
       0.29407662 0.046592966 0.27067205 0.06023816
0003f0 f1 79 82 3d 2e d5 a9 3e c8 e4 19 3d 53 bb 00 bf
       0.06370915 0.33170456 0.0375717 -0.50285834

network_body._body_endoder.seq_layers.0.bias f4 [128]
000000 00 00 00 00 00 00 00 00 00 00 00 00 00 00 00 00
       0.0 0.0 0.0 0.0
000010 00 00 00 00 00 00 00 00 00 00 00 00 00 00 00 00
       0.0 0.0 0.0 0.0
000020 00 00 00 00 00 00 00 00 00 00 00 00 00 00 00 00
       0.0 0.0 0.0 0.0
000030 00 00 00 00 00 00 00 00 00 00 00 00 00 00 00 00
       0.0 0.0 0.0 0.0
000040 00 00 00 00 00 00 00 00 00 00 00 00 00 00 00 00
       0.0 0.0 0.0 0.0
000050 00 00 00 00 00 00 00 00 00 00 00 00 00 00 00 00
       0.0 0.0 0.0 0.0
000060 00 00 00 00 00 00 00 00 00 00 00 00 00 00 00 00
       0.0 0.0 0.0 0.0
000070 00 00 00 00 00 00 00 00 00 00 00 00 00 00 00 00
       0.0 0.0 0.0 0.0
000080 00 00 00 00 00 00 00 00 00 00 00 00 00 00 00 00
       0.0 0.0 0.0 0.0
000090 00 00 00 00 00 00 00 00 00 00 00 00 00 00 00 00
       0.0 0.0 0.0 0.0
0000a0 00 00 00 00 00 00 00 00 00 00 00 00 00 00 00 00
       0.0 0.0 0.0 0.0
0000b0 00 00 00 00 00 00 00 00 00 00 00 00 00 00 00 00
       0.0 0.0 0.0 0.0
0000c0 00 00 00 00 00 00 00 00 00 00 00 00 00 00 00 00
       0.0 0.0 0.0 0.0
0000d0 00 00 00 00 00 00 00 00 00 00 00 00 00 00 00 00
       0.0 0.0 0.0 0.0
0000e0 00 00 00 00 00 00 00 00 00 00 00 00 00 00 00 00
       0.0 0.0 0.0 0.0
0000f0 00 00 00 00 00 00 00 00 00 00 00 00 00 00 00 00
       0.0 0.0 0.0 0.0
000100 00 00 00 00 00 00 00 00 00 00 00 00 00 00 00 00
       0.0 0.0 0.0 0.0
000110 00 00 00 00 00 00 00 00 00 00 00 00 00 00 00 00
       0.0 0.0 0.0 0.0
000120 00 00 00 00 00 00 00 00 00 00 00 00 00 00 00 00
       0.0 0.0 0.0 0.0
000130 00 00 00 00 00 00 00 00 00 00 00 00 00 00 00 00
       0.0 0.0 0.0 0.0
000140 00 00 00 00 00 00 00 00 00 00 00 00 00 00 00 00
       0.0 0.0 0.0 0.0
000150 00 00 00 00 00 00 00 00 00 00 00 00 00 00 00 00
       0.0 0.0 0.0 0.0
000160 00 00 00 00 00 00 00 00 00 00 00 00 00 00 00 00
       0.0 0.0 0.0 0.0
000170 00 00 00 00 00 00 00 00 00 00 00 00 00 00 00 00
       0.0 0.0 0.0 0.0
000180 00 00 00 00 00 00 00 00 00 00 00 00 00 00 00 00
       0.0 0.0 0.0 0.0
000190 00 00 00 00 00 00 00 00 00 00 00 00 00 00 00 00
       0.0 0.0 0.0 0.0
0001a0 00 00 00 00 00 00 00 00 00 00 00 00 00 00 00 00
       0.0 0.0 0.0 0.0
0001b0 00 00 00 00 00 00 00 00 00 00 00 00 00 00 00 00
       0.0 0.0 0.0 0.0
0001c0 00 00 00 00 00 00 00 00 00 00 00 00 00 00 00 00
       0.0 0.0 0.0 0.0
0001d0 00 00 00 00 00 00 00 00 00 00 00 00 00 00 00 00
       0.0 0.0 0.0 0.0
0001e0 00 00 00 00 00 00 00 00 00 00 00 00 00 00 00 00
       0.0 0.0 0.0 0.0
0001f0 00 00 00 00 00 00 00 00 00 00 00 00 00 00 00 00
       0.0 0.0 0.0 0.0

network_body._body_endoder.seq_layers.2.weight f4 [128, 128]
000000 49 3e 43 3e e4 aa 3c 3b 71 12 aa 3c d6 25 9d 3c
       0.19066729 0.0028788382 0.020760747 0.01918308
000010 aa 80 54 be 3d 68 cd 3c cb f7 f7 3d d6 fe 16 bd
       -0.20752206 0.025074119 0.1210781 -0.036864124
000020 59 51 3b bd 3c ea 07 3d 52 0a 04 3e 9d f5 8c bc
       -0.045731876 0.033182368 0.12894562 -0.017206961
000030 6b 24 3d bc 8e a4 b2 3c 33 1b 22 3c a2 41 c8 3c
       -0.011544327 0.021806981 0.00989418 0.024445359
000040 20 c4 bd bd 22 77 11 be 4d 33 03 bd 3c a9 28 3b
       -0.092659235 -0.14205602 -0.032031346 0.0025735637
000050 aa 8d 91 bd a6 a1 47 bd 95 13 6e 3d cb a3 88 bd
       -0.071070984 -0.048738144 0.058124144 -0.06671866
000060 a9 8e e1 3d 27 85 ba 3c bf 1d 1f 3d b4 3b aa bd
       0.110135384 0.02276857 0.038846727 -0.08312169
000070 66 4f 92 3c 9c 85 2f bd fb 55 48 bc ab b0 a1 3d
       0.017860126 -0.04285203 -0.012227531 0.07895025
000080 30 6e 88 3d c9 96 76 3c f4 fc 0e be 13 3d b3 bd
       0.066616416 0.015050598 -0.13963681 -0.08751883
000090 2e a0 94 bc b4 ce 30 3d 97 0c 76 bc 9d d7 0f 3d
       -0.018142786 0.043165877 -0.01501765 0.035117734
0000a0 f1 c5 79 3c 9b b5 93 bd 76 c9 2d be 3c 68 4e bc
       0.015244947 -0.07212373 -0.16971382 -0.012598094
0000b0 07 47 58 bb 62 d7 d4 3c 85 d1 9f 3d 91 4a b1 3b
       -0.003300132 0.025981609 0.078036346 0.0054105003
0000c0 a2 eb b8 bd 7f 91 80 3c f7 96 d4 3c e3 28 d7 3d
       -0.090293184 0.015694378 0.025950892 0.105058454
0000d0 87 e0 c4 bd b2 3b 4d 3d 37 39 04 bd 8f 07 0f 3d
       -0.09613138 0.050105758 -0.032281127 0.034919318
0000e0 3c f8 39 bc 40 95 aa 3c 54 7d 91 3d 22 86 03 bd
       -0.011350688 0.020823121 0.071039826 -0.03211034
0000f0 30 b1 4e be 27 bf 1b be 46 75 31 3d 02 44 c8 3d
       -0.20184779 -0.15209638 0.04332473 0.097785965
000100 63 3b b9 bd 89 ee 5a bc 1c ca 4b 3d ef 48 4f bd
       -0.0904453 -0.013362535 0.049753293 -0.050606664
000110 70 55 1c 3d 7c 91 d1 bb fa c2 56 3e cc 00 b5 3c
       0.038167417 -0.006395517 0.20972815 0.022095107
000120 6a c6 db bd 02 0c 8a 3c 93 c2 67 bd fc 23 16 3d
       -0.10731204 0.016851429 -0.056582045 0.03665541
000130 71 5b ab bd 2a a3 9a bd 54 1b dc 3c bd 07 0c be
       -0.083670504 -0.07550652 0.0268685 -0.13674827
000140 cb 46 12 bb 52 4f 29 be b4 c1 46 bd 9b f3 2a 3e
       -0.0022320028 -0.16534165 -0.048524573 0.1669449
000150 e1 8b 0b bd d1 f0 45 bc 7b 6a 80 3c e4 b5 88 bd
       -0.034068946 -0.012081341 0.015675774 -0.06675318
000160 92 59 19 bc 95 da 07 3e 33 a5 ce 3d 43 12 c1 bd
       -0.009359734 0.13266976 0.10090103 -0.09427311
000170 9e db 28 be 17 05 ea 3b c2 be 97 bc 64 5e 6d 3d
       -0.16490027 0.00714172 -0.018523578 0.057951346
000180 32 1a 97 bc d6 9f c1 bd 0e 3e 03 bd ab ab 8e bc
       -0.018445108 -0.094543144 -0.0320416 -0.017415842
000190 c3 4f fe 3b cb 87 af 3c 84 9d ec 3c 34 bc da bd
       0.007760973 0.021427056 0.028883703 -0.10680428
0001a0 0e 8b 6a bc ad 83 56 3d b1 6e 79 bd c6 cb b2 3d
       -0.01431538 0.05237167 -0.06089658 0.08730273
0001b0 4a 19 11 3e 08 9e 2d be 2a 97 e9 bb cd 5f 0e 3d
       0.14169803 -0.16954815 -0.007128616 0.03475933
0001c0 e2 94 c3 3d 2b d9 ca bd 72 71 d5 3c e9 5e 01 3e
       0.095498815 -0.09904703 0.026055072 0.12633862
0001d0 83 b1 b5 3a 02 67 07 be 6a 3e df bd ee 09 0c 3c
       0.0013862107 -0.13222888 -0.109005764 0.008547289
0001e0 ee 20 e2 bc 10 91 b9 bc 23 cb 8b bd af aa 34 3e
       -0.027603593 -0.022652179 -0.06825855 0.17643236
0001f0 42 85 05 bc 3c d2 6c bc 22 de 92 3d 50 17 96 bd
       -0.008149447 -0.014454421 0.07171275 -0.07328665
000200 22 e5 da bd 5d 47 b3 bd da 58 bb 3c a9 8b aa bc
       -0.10688235 -0.08753846 0.022869516 -0.020818548
000210 c4 f7 7a 3b b1 44 6d 3d ed 08 36 be 45 d7 2f bc
       0.0038294652 0.057926837 -0.17776842 -0.010732477
000220 2c 15 f9 3d 14 6d 2e bd 43 10 04 be 71 42 b4 bd
       0.12162241 -0.042584494 -0.12896828 -0.08801735
000230 4f 1a 24 3e 63 c7 38 bd ea a8 a8 3d cb b0 7a 3d
       0.16025661 -0.045112025 0.08235343 0.06120376
000240 cd 68 f1 bc 1a 58 e2 bb b0 dc ee 3d e6 22 e1 3d
       -0.029468918 -0.006907475 0.116631866 0.109929845
000250 2a d4 45 3e 6d fd 51 bd 94 89 e3 bb f2 8d 14 be
       0.19319215 -0.051267076 -0.006943891 -0.14507273
000260 73 52 1e 3d 1e ec 1c bc 93 b2 d5 3d fa 4a 86 3d
       0.03865285 -0.009577779 0.10434451 0.065572694
000270 6c da 8c 3d 21 1c 8a bd 78 62 c3 bc 48 ad 92 3d
       0.06877598 -0.067436464 -0.023850664 0.07161957
000280 ce 52 d7 bd 88 33 16 bd 07 73 ca 3d e7 24 d2 bd
       -0.105138406 -0.036670238 0.09885221 -0.10260945
000290 9f 1b 58 be b6 a0 d5 bd c6 fc 04 3e 92 c6 64 3d
       -0.21104287 -0.10431044 0.1298705 0.055853434
0002a0 42 18 aa bd ce 4e 5e bd 0a 34 b4 3d 72 8b 99 3c
       -0.08305408 -0.054274373 0.08798988 0.01874325
0002b0 76 ea 25 3c e4 cd 36 be 8c b0 33 bd 10 e6 f6 bd
       0.010126701 -0.17851979 -0.04386954 -0.120556
0002c0 5f a1 bb 3c cc 97 e4 3d f3 a6 db bc ef 91 38 3d
       0.022904096 0.111617655 -0.026813006 0.045061048
0002d0 d5 e8 02 3b 6b 42 af bd 82 d4 3e 3d 26 e3 8f 3d
       0.0019975204 -0.0855759 0.046589382 0.07025747
0002e0 c5 9d a2 bd b5 16 6c bd 19 3d cb bd 27 59 e3 3d
       -0.079402484 -0.057638843 -0.09923763 0.11100989
0002f0 2b 46 85 bd 3c 51 3d bd a3 ae 57 bc ad fc 2a bd
       -0.06507524 -0.04622005 -0.013164195 -0.041744877
000300 24 e2 77 3d 93 37 9c bd 55 e1 d8 bd a8 82 9a bd
       0.0605184 -0.076277874 -0.10589854 -0.07544452
000310 dc 91 bf bc db 60 ee bc 5b 65 21 bd fb f7 00 bd
       -0.02338498 -0.029098919 -0.0394033 -0.031486493
000320 4b 2c ae 3d b3 6a fb 3d 5e 1f 13 be b1 5c 48 3c
       0.08504542 0.12276211 -0.14367434 0.012229131
000330 13 d8 10 bd 3b 2a d6 3c 69 9a cc bd b3 34 7b be
       -0.035362314 0.026143184 -0.09990389 -0.24531822
000340 ef 6b a9 bd 26 49 2e bd a2 d1 d2 3d 7f 04 ae bd
       -0.0827254 -0.04255023 0.102938905 -0.08496951
000350 ff 61 e9 3c 30 30 0d 3d ad b9 0a bd e6 c2 bb bd
       0.028489111 0.034469783 -0.03386848 -0.09168033
000360 24 c6 d0 bc cc 9c d5 3c d7 c1 b9 bd 20 de 8f ba
       -0.025485106 0.026075743 -0.09070175 -0.0010976233
000370 34 73 c5 bd 26 ba bb 3d 29 79 97 3d d2 07 7e 3e
       -0.09641114 0.09166364 0.07396156 0.2480767
000380 4f a6 c8 bc 99 a4 59 3d 9f 4f b5 bd f7 ed 0f bd
       -0.024493365 0.05313549 -0.08853077 -0.03513905
000390 26 05 14 bc b7 6c 6a 3d 4f 9e 9e bc 92 fc 61 bd
       -0.009034431 0.057232585 -0.019362597 -0.05517251
0003a0 b2 ea eb bd 31 28 6f 3e f3 48 a5 3d fc 77 15 3d
       -0.11519374 0.23355176 0.080705546 0.03649138
0003b0 e7 78 52 3d 89 e6 f9 bd 5a 93 b2 bd 0e ca 24 3c
       0.051384833 -0.12202174 -0.08719511 0.010057939
0003c0 72 3a 73 bd 0a bd ea bb 17 31 fa bd e6 6f 9d ba
       -0.05938191 -0.0071636485 -0.122163944 -0.0012011498
0003d0 17 0b 25 3d 2f 0d bb 3d 06 16 c9 bd c9 49 af bd
       0.04029378 0.09133374 -0.09818654 -0.08558995
0003e0 95 a2 15 be 89 24 aa 3d 41 85 e7 bd 00 c5 58 3d
       -0.14612801 0.0830775 -0.11304713 0.05292225
0003f0 61 54 ae 3d 9f 01 28 3c a8 4b ea 3c ce 6e 2b 3e
       0.08512188 0.010254293 0.028600529 0.16741487

action_model._continuous_distribution.log_sigma f4 [1, 3]
000000 00 00 00 00 00 00 00 00 00 00 00 00
       0.0 0.0 0.0

action_model._continuous_distribution.mu.weight f4 [3, 128]
000000 53 8f 19 bc 2b fe d6 3c ef 04 1d bd e4 13 04 bc
       -0.00937255 0.026244244 -0.038334783 -0.008061383
000010 71 9b c2 bc bc e1 a0 bc 4c 8b 3a 3c 40 42 87 3c
       -0.02375576 -0.019638889 0.01138575 0.016511083
000020 7b a6 9b bc ea b1 65 ba 17 ee b2 3c 3e c4 10 3d
       -0.019000283 -0.0008762168 0.021842046 0.0353434
000030 a7 da 99 3c d3 b2 84 bc 03 e9 34 bc 23 99 3e bc
       0.01878102 -0.016198551 -0.011041882 -0.01163319
000040 4b 4d 41 3c 0d f7 f6 bb 85 09 6f bc 7f 7e 6f 3c
       0.011798213 -0.007536775 -0.014589672 0.014617561
000050 1b e8 41 3c 18 74 bb bb 7a ac d3 3b 61 d4 84 bc
       0.011835123 -0.0057206266 0.00645977 -0.016214551
000060 33 33 52 bc ea 46 a5 3c b4 53 44 bc 87 28 02 bb
       -0.01282959 0.020175416 -0.011982847 -0.0019860582
000070 7f 6e 9c ba 8b 9a 18 bd b0 42 e3 bc e7 21 a5 3b
       -0.0011934786 -0.03725676 -0.02774176 0.005039442
000080 0f 85 29 3c 00 3d 0d 3b fc ac 0d 3b 60 59 ea bb
       0.010346665 0.0021551251 0.0021618 -0.0071517676
000090 a4 22 9e 3c f7 38 20 3b 7a 1f e6 bc 04 db 96 3c
       0.019303627 0.0024448016 -0.028091181 0.018414982
0000a0 35 bf ee bc 2b e0 23 bc c2 b9 c4 ba 83 2d 32 bc
       -0.029143909 -0.010002176 -0.0015008973 -0.010875109
0000b0 c7 33 ca bb 47 65 0c 3c 90 9e 30 3d d7 1d 28 3c
       -0.006170723 0.008569068 0.043119967 0.010261021
0000c0 25 8c b4 bb a7 3c 63 3c b3 cf f7 39 e4 d0 22 3d
       -0.0055098706 0.013869441 0.0004726626 0.039749995
0000d0 93 d9 7d bb 97 37 ae bc 87 ea 64 3c 30 1a 18 3d
       -0.003873442 -0.021266742 0.013971931 0.03713435
0000e0 17 92 2a bc f7 6b ab bc 62 a7 1a 3a 71 7c bb 3a
       -0.010410807 -0.020925505 0.0005899576 0.0014304054
0000f0 be 5b 1c 3c e1 40 b9 3c a8 4c 76 3c cb 1d 5a bc
       0.009543357 0.022613944 0.015032925 -0.013312767
000100 e2 81 ef bc 1d f6 77 3b 2e dd b6 3a e3 94 bc bc
       -0.029236738 0.0037835904 0.0013951415 -0.023020213
000110 da 89 68 3c b3 fc 7f 3b d1 73 18 3c da c9 1d bc
       0.014193023 0.0039060533 0.0093049565 -0.009630645
000120 0d e7 01 bc 00 c8 c9 3b 82 ac 5e bb 98 ef 52 bc
       -0.007928622 0.006157875 -0.0033977334 -0.012874506
000130 40 0c 79 3c 05 80 c1 3c 2f 5a 8b 3c 61 35 c9 bc
       0.0152006745 0.023620615 0.017010776 -0.024561586
000140 08 18 f1 bb 32 fc f5 bc 22 8e a2 3a b2 fc 48 bc
       -0.007357601 -0.030027483 0.0012401978 -0.0122672785
000150 eb a2 c7 bc a9 d4 2e bb 02 87 a7 bb 43 9a c9 bb
       -0.024369678 -0.0026677048 -0.0051125297 -0.0061524226
000160 b9 60 01 bc 94 e1 37 bc 46 6d 26 3c ab 08 4e bc
       -0.007896596 -0.011223216 0.010157889 -0.012575309
000170 18 0e 81 bc 7a db e4 ba d6 b0 0b 3a 03 74 58 3d
       -0.01575379 -0.0017460429 0.000532878 0.052845012
000180 08 66 3e bd 48 99 b3 bc 4c 2c c9 3a cf 0b 9e bc
       -0.046484023 -0.021923676 0.0015348285 -0.01929274
000190 40 ad 5d 3c 2f 9d a7 3c 5a 39 52 bb 58 1a e9 3c
       0.013530076 0.020460693 -0.0032077641 0.028454944
0001a0 b8 7b a3 bb c4 dd 0a bd d2 10 da 3c 1d 10 d3 bb
       -0.0049891137 -0.0339029 0.026619349 -0.00644113
0001b0 6b ec 81 bb 07 8e 8d bc 90 6f 52 3d 0b 2e f0 3c
       -0.003964951 -0.017279638 0.051375926 0.02931883
0001c0 28 79 08 3d 07 7a 0a 3c e4 93 3c 3c 2d e7 c5 bc
       0.03331867 0.008451945 0.011509869 -0.024158085
0001d0 ed 72 c8 bc fd 87 50 bc d8 ce b2 3b 18 14 98 bc
       -0.024468863 -0.012727735 0.0054567866 -0.018564269
0001e0 a7 55 ea 3b 41 6b ac bc d2 dc 8d bc ab 1f ec bc
       0.007151324 -0.021047236 -0.01731721 -0.028823694
0001f0 9f b3 9b bc b5 ac 79 3c bc 87 b8 bb 69 3f 29 bc
       -0.019006548 0.0152389305 -0.005631415 -0.01033006
000200 77 44 e4 bc 1e d9 c5 bc c2 29 f0 3c a7 cf a1 3c
       -0.027864678 -0.024151381 0.029316787 0.019752337
000210 60 bf f6 bb 10 81 54 3b 23 6a 2a 3d e0 bd 82 bc
       -0.007530138 0.003242556 0.041605126 -0.01595968
000220 62 87 82 bc 82 9d ad bc 9b 10 e8 ba 30 0b ce 3c
       -0.015933696 -0.02119327 -0.0017705144 0.025151819
000230 12 11 df bb 47 6c 88 bc 5b ba 98 bb 6b 4b 9a 3c
       -0.006807455 -0.016653193 -0.004660887 0.01883479
000240 ac 84 ad 3c 80 fc 6c bc 20 2b 0e 3d d3 e0 5a 3a
       0.021181427 -0.014464498 0.034709096 0.00083495415
000250 83 98 8b bb 3e 28 27 bc 17 ce 00 bd a8 71 39 3c
       -0.004260124 -0.010202466 -0.031446543 0.011318602
000260 e6 51 8e 3b b7 67 d9 bc e0 d4 9d bc 36 2e 83 3c
       0.004343259 -0.026538713 -0.019266546 0.016013246
000270 d8 71 99 3c a8 a7 0d bc 53 20 f5 bb 4b 0e 55 3c
       0.018731043 -0.008645929 -0.00748066 0.013003896
000280 23 95 e6 3c 53 d1 8f bc f0 6c 26 3d 1c f1 40 3b
       0.028147286 -0.017555868 0.040631235 0.0029440587
000290 db 61 9c 3c 6d a6 a5 38 37 e3 94 3c e0 63 d0 ba
       0.01908963 7.898812e-05 0.01817475 -0.0015898906
0002a0 30 ff cf bc 8a 20 a9 3c 3d 58 2b ba 80 58 a3 bc
       -0.025390238 0.020645399 -0.0006536281 -0.019939661
0002b0 e0 87 43 3a df c2 a1 3b 6f 0f 95 3c b7 8a 52 bb
       0.00074589066 0.0049365605 0.018195836 -0.0032126138
0002c0 ed 4d 58 bc c3 14 94 3c d3 5e 24 bc d7 5d 59 bc
       -0.013202173 0.018076306 -0.0100323735 -0.013267002
0002d0 39 63 c6 bb 8e 5b 23 bb 1a 3c 9b 3b 3f c6 55 bc
       -0.0060543087 -0.0024926397 0.0047373893 -0.013047754
0002e0 8f 23 d5 3b d7 df 85 bc a2 8f 03 3d 8d 5b 4f bb
       0.006504483 -0.016342087 0.0321194 -0.0031640262
0002f0 22 69 6a 39 23 81 d9 bc b3 8b 04 bd ea 3d 38 3d
       0.00022355144 -0.026550835 -0.03235979 0.04498092
000300 29 36 87 3b bf b5 0c bb 1d 57 d0 3b bf 5e ba bb
       0.0041263294 -0.0021470634 0.006358041 -0.005687564
000310 17 aa 41 3c 67 87 83 3b aa e3 ae 3c a6 83 8c bc
       0.011820338 0.004013944 0.021348793 -0.017152619
000320 69 5b a8 bc 03 6d 5d bb 6b 11 d2 bc e5 ac 89 bb
       -0.0205514 -0.00337869 -0.025643071 -0.004201519
000330 cb ac de 3c c5 dd bc 3c 5d 0a d4 3c 8f b9 23 3c
       0.027182003 0.023054967 0.025883848 0.009992971
000340 6f 53 00 bc d1 d0 c5 3c 0b 31 86 bc fe 58 bd bb
       -0.007832392 0.024147423 -0.016380807 -0.005778431
000350 d8 85 5c 3c c6 66 c5 3c ba e2 8b 3c 5f 32 f0 b8
       0.013459645 0.024096858 0.017075885 -0.00011453474
000360 2d 6c 76 3c 43 73 a3 bb a6 44 c8 bc ab 8e 9f bc
       0.01504044 -0.0049881055 -0.024446797 -0.01947721
000370 21 0d 0e 3d 12 97 44 3b 7a f6 1b bc 70 2b ce bc
       0.03468049 0.0029997271 -0.009519214 -0.025167197
000380 63 95 87 bc 9c d4 16 bd db 13 26 3c 7f 2a c3 bc
       -0.016550725 -0.036823854 0.01013657 -0.023823975
000390 96 18 c4 bc 88 41 7a bc 23 a1 01 3d b3 22 3b 3c
       -0.023937505 -0.015274413 0.031647813 0.011421847
0003a0 6d ab 40 bb 11 17 99 3c b8 74 e3 bb c7 4c b5 3b
       -0.0029399053 0.018687757 -0.006941404 0.005532834
0003b0 cf 0c ac bc 87 b7 8f bc 8f df 9b bb 4d 2d b7 3c
       -0.021002201 -0.017543567 -0.004756875 0.022360468
0003c0 9f 57 b6 bc 5d 2e 60 3c 3c 8b c5 bb b5 b3 e6 bc
       -0.022258578 0.013682929 -0.006028561 -0.028161863
0003d0 ff b0 d3 bc 33 48 61 3c ec 56 05 3c 0b 8f a1 bb
       -0.025841234 0.013750124 0.0081384 -0.004930382
0003e0 0b 30 c1 39 2f ea f0 bc 77 fb c0 bc ef 6d 80 3c
       0.00036847623 -0.029408542 -0.023557408 0.01567742
0003f0 c5 ce d7 3c 41 7b 04 bc 80 1c f3 bc 13 1c b6 3c
       0.026343713 -0.008086027 -0.029676676 0.022230184

action_model._continuous_distribution.mu.bias f4 [3]
000000 00 00 00 00 00 00 00 00 00 00 00 00
       0.0 0.0 0.0
