results/ppo/FPVBehavior/checkpoint.pt (torch, 156066 bytes, 12 tensors)

network_body._body_endoder.seq_layers.0.weight f4 [128, 12]
0	0x3e2eb833	0.17062454
1	0x3dd1c35a	0.102423385
2	0x3e0fc976	0.14041695
3	0xbe935cb4	-0.28781664
4	0xbe8e28aa	-0.277654
5	0xbf021098	-0.5080657
6	0xbd8fadef	-0.07015597
7	0x3e98d2f2	0.29848439
8	0xbd307d86	-0.04308846
9	0x3dc65995	0.09685055
10	0xbeeda254	-0.4641291
11	0x3e8abb4c	0.2709602
12	0x3e46828d	0.19385739
13	0xbed84db5	-0.42246786
14	0x3e17bb81	0.14817621
15	0x3e86d3e0	0.26333523
16	0xbe1f61ab	-0.15564601
17	0xbde246fe	-0.11048697
18	0xbec7e6f6	-0.39043397
19	0x3c8dba87	0.017300857
20	0xbe7569f5	-0.239662
21	0xbe39da15	-0.18149598
22	0xbe8eec4f	-0.27914664
23	0xbe02d19d	-0.12775274
24	0x3e8b5573	0.2721363
25	0xbd16c734	-0.03681107
26	0xbebefbf6	-0.37301606
27	0xbdd57311	-0.10422338
28	0xbede1f28	-0.43383145
29	0x3d0eb40c	0.034839675
30	0x3e9ee52f	0.31034228
31	0x3e947040	0.2899189
32	0xbe2a5800	-0.16635132
33	0xbcde2ce3	-0.027121013
34	0x3df51181	0.11966229
35	0x3e2b213d	0.16711898
36	0xbedf772b	-0.43645605
37	0x3e70573f	0.23470782
38	0xbddefde2	-0.10888268
39	0x3d35d8e9	0.044396315
40	0xbd844b5f	-0.064596884
41	0xbe1783f2	-0.14796427
42	0x3e0dcddc	0.1384806
43	0xbca3fef6	-0.020019036
44	0xbd4023a3	-0.046908986
45	0x3da7c5c1	0.081920154
46	0xbcbd7fc0	-0.023132205
47	0x3e57edda	0.21086827
48	0xbe2177c9	-0.1576835
49	0x3db6477b	0.089003526
50	0xbe18fd3e	-0.14940354
51	0xbed561b5	-0.41676107
52	0xbea00888	-0.3125651
53	0xbe24292a	-0.16031328
54	0xbe4d1e3c	-0.20031065
55	0x3e86b11b	0.26306996
56	0xbdc8faee	-0.09813486
57	0xbea7716f	-0.3270373
58	0xbe46f72f	-0.1943023
59	0x3ecf04c2	0.40433317
60	0x3e86f5c0	0.26359367
61	0xbe3a84d2	-0.1821473
62	0xbc81858e	-0.015810754
63	0xbef16d3e	-0.47153658
64	0x3f1ce85b	0.61292046
65	0x3f0fdd11	0.56196696
66	0x3e85175c	0.25994384
67	0x3cca425f	0.024689851
68	0x3e97a842	0.29620558
69	0xbec1af96	-0.37829274
70	0xbf10b74d	-0.56529695
71	0xbebc5382	-0.3678246
72	0xbe47da6f	-0.1951692
73	0x3c1ef5c0	0.009702146
74	0x3e421cfe	0.18956372
75	0xbf198559	-0.599691
76	0x3ebc1954	0.36738074
77	0xbc8630b7	-0.01638065
78	0x3c96232d	0.01832732
79	0x3e83c6c1	0.25737575
80	0xbd743bbc	-0.05962728
81	0x3eb5541c	0.35415733
82	0x3e0cd2a6	0.13752231
83	0xbd5fa2bd	-0.05459856
84	0xbd207b1f	-0.039179917
85	0xbcee265b	-0.029071024
86	0xbf000599	-0.5000854
87	0x3e105683	0.14095502
88	0xbe7920f8	-0.24328983
89	0xbc2d8138	-0.01058989
90	0x3e766b54	0.2406438
91	0xbeb32b3b	-0.3499392
92	0x3d48a8dd	0.048989166
93	0xbe4ed8ff	-0.20199965
94	0xbde7b43c	-0.11313674
95	0x3e5be77e	0.21475026
96	0x3e1d1198	0.15338743
97	0xbe14b544	-0.14522272
98	0xbe48fbb2	-0.19627264
99	0xbd8d484a	-0.06898554
100	0x3d9b0ada	0.07570429
101	0xbec607e9	-0.3867791
102	0x3e8bc137	0.2729585
103	0xbef73361	-0.48281386
104	0xbe06fccb	-0.1318237
105	0xbe79d101	-0.24396135
106	0x3c9b99cc	0.018994235
107	0xbeca4470	-0.3950534
108	0x3e256fa5	0.1615587
109	0xbd2f42ce	-0.04278832
110	0xbe25a2a5	-0.16175325
111	0x3ec3aa91	0.3821607
112	0x3e0a5893	0.13510351
113	0x3e3a3985	0.18186004
114	0x3d83a7da	0.064284995
115	0x3d81ddce	0.06341134
116	0x3f02414c	0.50880885
117	0x3dccfff8	0.1000976
118	0x3dceffb7	0.101073675
119	0x3e466260	0.19373465
120	0x3d7430f0	0.059616983
121	0x3ef8aa86	0.485676
122	0xbe1a0811	-0.1504214
123	0x3e2131b9	0.15741624
124	0x3f13f58b	0.57796544
125	0x3f0da4dc	0.5532968
126	0x3e8ea8b5	0.27863088
127	0xbf0a7833	-0.5408966
128	0x3e8d4a11	0.2759557
129	0x3d32462f	0.043523964
130	0x3f16f351	0.5896502
131	0xbe18f50a	-0.14937225
132	0xbf5a514e	-0.8528031
133	0xbe6d92b4	-0.23200494
134	0x3e91fde6	0.28514022
135	0x3cbcd1ee	0.023049321
136	0x3e379ec4	0.17931658
137	0x3e76de0b	0.2410814
138	0x3e8ac1fd	0.27101126
139	0x3eeebfd3	0.46630725
140	0x3f00b404	0.5027468
141	0x3d2b1e54	0.04177697
142	0xbe1cf4f5	-0.15327819
143	0xbefa86cf	-0.48930976
144	0xbe17b2db	-0.14814322
145	0x3f11b362	0.5691434
146	0x3eecdc7a	0.4626196
147	0xbda9f3d4	-0.0829846
148	0x3d857238	0.06515926
149	0x3e4c738f	0.19965957
150	0x3ede6135	0.43433538
151	0x3e85dd25	0.26145282
152	0xbe7d2dae	-0.24724457
153	0x3e48ab53	0.19596605
154	0x3e6c7275	0.23090537
155	0xbc34e2ab	-0.01104037
156	0xbe2034d7	-0.15645157
157	0xbd57fb8a	-0.05273012
158	0x3e0e8f68	0.13921893
159	0x3e2b83c2	0.1674948
160	0x3e2f1a07	0.17099772
161	0xbebe8170	-0.37208128
162	0x3e95b13c	0.29236782
163	0x3d78dc12	0.06075675
164	0xbdfdec96	-0.12398641
165	0xbe3de63b	-0.18544857
166	0x3e7e9cbe	0.2486448
167	0xbe429687	-0.19002734
168	0xbe95d696	-0.2926528
169	0xbd243833	-0.04009266
170	0x3ce1cb7f	0.027562855
171	0x3e98d819	0.2985237
172	0x3e5aad94	0.21355277
173	0x3e9b510c	0.3033527
174	0x3eddbba2	0.43307215
175	0xbde603f4	-0.11231223
176	0xbd3eb32c	-0.04655759
177	0xbd757af8	-0.059931725
178	0xbe544843	-0.2073069
179	0xbcdc5755	-0.026897112
180	0x3b4aa992	0.0030923826
181	0x3f000ab1	0.50016314
182	0x3ed0ec7e	0.4080543
183	0x3ca470be	0.02007329
184	0x3d843357	0.06455105
185	0xbd546536	-0.051854335
186	0x3f1cf8a3	0.6131689
187	0x3df4ec36	0.11959116
188	0x3e592990	0.21207261
189	0x3f00ec43	0.50360507
190	0xbbad7176	-0.0052930666
191	0xbe67c014	-0.22631866
192	0x3d18cae7	0.037302878
193	0x3e99ddb2	0.30051953
194	0xbf2dbbfd	-0.6786497
195	0x3c9d5222	0.019204203
196	0x3eb1fd5d	0.34763613
197	0x3e8597ed	0.26092473
198	0x3d3e9fd6	0.04653915
199	0x3e4db0cc	0.20086974
200	0xbe3bd090	-0.18341279
201	0x3f151317	0.58232254
202	0x3eb1f157	0.3475444
203	0xbd139698	-0.03603229
204	0xbe5fc6d0	-0.21853185
205	0x3f11f522	0.5701467
206	0xbbd2ccf5	-0.006433124
207	0x3ead2fc1	0.33825496
208	0xbd80fdd3	-0.06298413
209	0xbe871736	-0.26384896
210	0x3e64643f	0.22303866
211	0x3e6ee997	0.23331295
212	0x3dc892f8	0.09793657
213	0xbdcf055f	-0.10108446
214	0xbe0124e2	-0.12611726
215	0xbcf5df6b	-0.03001376
216	0x3debf20f	0.115207784
217	0x3eaa5301	0.33266452
218	0x3e6a8ca2	0.2290521
219	0xbe840c43	-0.25790605
220	0x3df1e30c	0.11810884
221	0x3dc3bd7e	0.09557627
222	0x3d409c5c	0.047024116
223	0x3d1ccb7a	0.038279988
224	0x3dfb6a5a	0.12276144
225	0x3dea50ac	0.11441168
226	0x3db0e69a	0.08637734
227	0xbd7cd827	-0.061729576
228	0xbdf96dfe	-0.121791825
229	0xbe57c8c8	-0.21072686
230	0xbec25b95	-0.37960497
231	0x3f02f60a	0.51156676
232	0xbdc4646c	-0.095894665
233	0x3e7a2adf	0.24430417
234	0x3ecca99e	0.39973158
235	0x3e8f121d	0.27943507
236	0xbdd84a48	-0.10561043
237	0xbf257e03	-0.64645404
238	0xbbda3390	-0.0066589788
239	0xbe45f5d5	-0.19332059
240	0xbe24ddb4	-0.16100198
241	0x3d31393b	0.04326747
242	0xbdd199a2	-0.10234381
243	0x3f6b9e0f	0.92038053
244	0xbe18ae49	-0.14910235
245	0x3ed3a868	0.4133942
246	0xbe441a6b	-0.19150703
247	0x3d82dfcf	0.06390344
248	0x3e969136	0.29407662
249	0x3d3ed844	0.046592966
250	0x3e8a9587	0.27067205
251	0x3d76bc4a	0.06023816
252	0x3d8279f1	0.06370915
253	0x3ea9d52e	0.33170456
254	0x3d19e4c8	0.0375717
255	0xbf00bb53	-0.50285834

network_body._body_endoder.seq_layers.0.bias f4 [128]
0	0x00000000	0.0
1	0x00000000	0.0
2	0x00000000	0.0
3	0x00000000	0.0
4	0x00000000	0.0
5	0x00000000	0.0
6	0x00000000	0.0
7	0x00000000	0.0
8	0x00000000	0.0
9	0x00000000	0.0
10	0x00000000	0.0
11	0x00000000	0.0
12	0x00000000	0.0
13	0x00000000	0.0
14	0x00000000	0.0
15	0x00000000	0.0
16	0x00000000	0.0
17	0x00000000	0.0
18	0x00000000	0.0
19	0x00000000	0.0
20	0x00000000	0.0
21	0x00000000	0.0
22	0x00000000	0.0
23	0x00000000	0.0
24	0x00000000	0.0
25	0x00000000	0.0
26	0x00000000	0.0
27	0x00000000	0.0
28	0x00000000	0.0
29	0x00000000	0.0
30	0x00000000	0.0
31	0x00000000	0.0
32	0x00000000	0.0
33	0x00000000	0.0
34	0x00000000	0.0
35	0x00000000	0.0
36	0x00000000	0.0
37	0x00000000	0.0
38	0x00000000	0.0
39	0x00000000	0.0
40	0x00000000	0.0
41	0x00000000	0.0
42	0x00000000	0.0
43	0x00000000	0.0
44	0x00000000	0.0
45	0x00000000	0.0
46	0x00000000	0.0
47	0x00000000	0.0
48	0x00000000	0.0
49	0x00000000	0.0
50	0x00000000	0.0
51	0x00000000	0.0
52	0x00000000	0.0
53	0x00000000	0.0
54	0x00000000	0.0
55	0x00000000	0.0
56	0x00000000	0.0
57	0x00000000	0.0
58	0x00000000	0.0
59	0x00000000	0.0
60	0x00000000	0.0
61	0x00000000	0.0
62	0x00000000	0.0
63	0x00000000	0.0
64	0x00000000	0.0
65	0x00000000	0.0
66	0x00000000	0.0
67	0x00000000	0.0
68	0x00000000	0.0
69	0x00000000	0.0
70	0x00000000	0.0
71	0x00000000	0.0
72	0x00000000	0.0
73	0x00000000	0.0
74	0x00000000	0.0
75	0x00000000	0.0
76	0x00000000	0.0
77	0x00000000	0.0
78	0x00000000	0.0
79	0x00000000	0.0
80	0x00000000	0.0
81	0x00000000	0.0
82	0x00000000	0.0
83	0x00000000	0.0
84	0x00000000	0.0
85	0x00000000	0.0
86	0x00000000	0.0
87	0x00000000	0.0
88	0x00000000	0.0
89	0x00000000	0.0
90	0x00000000	0.0
91	0x00000000	0.0
92	0x00000000	0.0
93	0x00000000	0.0
94	0x00000000	0.0
95	0x00000000	0.0
96	0x00000000	0.0
97	0x00000000	0.0
98	0x00000000	0.0
99	0x00000000	0.0
100	0x00000000	0.0
101	0x00000000	0.0
102	0x00000000	0.0
103	0x00000000	0.0
104	0x00000000	0.0
105	0x00000000	0.0
106	0x00000000	0.0
107	0x00000000	0.0
108	0x00000000	0.0
109	0x00000000	0.0
110	0x00000000	0.0
111	0x00000000	0.0
112	0x00000000	0.0
113	0x00000000	0.0
114	0x00000000	0.0
115	0x00000000	0.0
116	0x00000000	0.0
117	0x00000000	0.0
118	0x00000000	0.0
119	0x00000000	0.0
120	0x00000000	0.0
121	0x00000000	0.0
122	0x00000000	0.0
123	0x00000000	0.0
124	0x00000000	0.0
125	0x00000000	0.0
126	0x00000000	0.0
127	0x00000000	0.0

network_body._body_endoder.seq_layers.2.weight f4 [128, 128]
0	0x3e433e49	0.19066729
1	0x3b3caae4	0.0028788382
2	0x3caa1271	0.020760747
3	0x3c9d25d6	0.01918308
4	0xbe5480aa	-0.20752206
5	0x3ccd683d	0.025074119
6	0x3df7f7cb	0.1210781
7	0xbd16fed6	-0.036864124
8	0xbd3b5159	-0.045731876
9	0x3d07ea3c	0.033182368
10	0x3e040a52	0.12894562
11	0xbc8cf59d	-0.017206961
12	0xbc3d246b	-0.011544327
13	0x3cb2a48e	0.021806981
14	0x3c221b33	0.00989418
15	0x3cc841a2	0.024445359
16	0xbdbdc420	-0.092659235
17	0xbe117722	-0.14205602
18	0xbd03334d	-0.032031346
19	0x3b28a93c	0.0025735637
20	0xbd918daa	-0.071070984
21	0xbd47a1a6	-0.048738144
22	0x3d6e1395	0.058124144
23	0xbd88a3cb	-0.06671866
24	0x3de18ea9	0.110135384
25	0x3cba8527	0.02276857
26	0x3d1f1dbf	0.038846727
27	0xbdaa3bb4	-0.08312169
28	0x3c924f66	0.017860126
29	0xbd2f859c	-0.04285203
30	0xbc4855fb	-0.012227531
31	0x3da1b0ab	0.07895025
32	0x3d886e30	0.066616416
33	0x3c7696c9	0.015050598
34	0xbe0efcf4	-0.13963681
35	0xbdb33d13	-0.08751883
36	0xbc94a02e	-0.018142786
37	0x3d30ceb4	0.043165877
38	0xbc760c97	-0.01501765
39	0x3d0fd79d	0.035117734
40	0x3c79c5f1	0.015244947
41	0xbd93b59b	-0.07212373
42	0xbe2dc976	-0.16971382
43	0xbc4e683c	-0.012598094
44	0xbb584707	-0.003300132
45	0x3cd4d762	0.025981609
46	0x3d9fd185	0.078036346
47	0x3bb14a91	0.0054105003
48	0xbdb8eba2	-0.090293184
49	0x3c80917f	0.015694378
50	0x3cd496f7	0.025950892
51	0x3dd728e3	0.105058454
52	0xbdc4e087	-0.09613138
53	0x3d4d3bb2	0.050105758
54	0xbd043937	-0.032281127
55	0x3d0f078f	0.034919318
56	0xbc39f83c	-0.011350688
57	0x3caa9540	0.020823121
58	0x3d917d54	0.071039826
59	0xbd038622	-0.03211034
60	0xbe4eb130	-0.20184779
61	0xbe1bbf27	-0.15209638
62	0x3d317546	0.04332473
63	0x3dc84402	0.097785965
64	0xbdb93b63	-0.0904453
65	0xbc5aee89	-0.013362535
66	0x3d4bca1c	0.049753293
67	0xbd4f48ef	-0.050606664
68	0x3d1c5570	0.038167417
69	0xbbd1917c	-0.006395517
70	0x3e56c2fa	0.20972815
71	0x3cb500cc	0.022095107
72	0xbddbc66a	-0.10731204
73	0x3c8a0c02	0.016851429
74	0xbd67c293	-0.056582045
75	0x3d1623fc	0.03665541
76	0xbdab5b71	-0.083670504
77	0xbd9aa32a	-0.07550652
78	0x3cdc1b54	0.0268685
79	0xbe0c07bd	-0.13674827
80	0xbb1246cb	-0.0022320028
81	0xbe294f52	-0.16534165
82	0xbd46c1b4	-0.048524573
83	0x3e2af39b	0.1669449
84	0xbd0b8be1	-0.034068946
85	0xbc45f0d1	-0.012081341
86	0x3c806a7b	0.015675774
87	0xbd88b5e4	-0.06675318
88	0xbc195992	-0.009359734
89	0x3e07da95	0.13266976
90	0x3dcea533	0.10090103
91	0xbdc11243	-0.09427311
92	0xbe28db9e	-0.16490027
93	0x3bea0517	0.00714172
94	0xbc97bec2	-0.018523578
95	0x3d6d5e64	0.057951346
96	0xbc971a32	-0.018445108
97	0xbdc19fd6	-0.094543144
98	0xbd033e0e	-0.0320416
99	0xbc8eabab	-0.017415842
100	0x3bfe4fc3	0.007760973
101	0x3caf87cb	0.021427056
102	0x3cec9d84	0.028883703
103	0xbddabc34	-0.10680428
104	0xbc6a8b0e	-0.01431538
105	0x3d5683ad	0.05237167
106	0xbd796eb1	-0.06089658
107	0x3db2cbc6	0.08730273
108	0x3e11194a	0.14169803
109	0xbe2d9e08	-0.16954815
110	0xbbe9972a	-0.007128616
111	0x3d0e5fcd	0.03475933
112	0x3dc394e2	0.095498815
113	0xbdcad92b	-0.09904703
114	0x3cd57172	0.026055072
115	0x3e015ee9	0.12633862
116	0x3ab5b183	0.0013862107
117	0xbe076702	-0.13222888
118	0xbddf3e6a	-0.109005764
119	0x3c0c09ee	0.008547289
120	0xbce220ee	-0.027603593
121	0xbcb99110	-0.022652179
122	0xbd8bcb23	-0.06825855
123	0x3e34aaaf	0.17643236
124	0xbc058542	-0.008149447
125	0xbc6cd23c	-0.014454421
126	0x3d92de22	0.07171275
127	0xbd961750	-0.07328665
128	0xbddae522	-0.10688235
129	0xbdb3475d	-0.08753846
130	0x3cbb58da	0.022869516
131	0xbcaa8ba9	-0.020818548
132	0x3b7af7c4	0.0038294652
133	0x3d6d44b1	0.057926837
134	0xbe3608ed	-0.17776842
135	0xbc2fd745	-0.010732477
136	0x3df9152c	0.12162241
137	0xbd2e6d14	-0.042584494
138	0xbe041043	-0.12896828
139	0xbdb44271	-0.08801735
140	0x3e241a4f	0.16025661
141	0xbd38c763	-0.045112025
142	0x3da8a8ea	0.08235343
143	0x3d7ab0cb	0.06120376
144	0xbcf168cd	-0.029468918
145	0xbbe2581a	-0.006907475
146	0x3deedcb0	0.116631866
147	0x3de122e6	0.109929845
148	0x3e45d42a	0.19319215
149	0xbd51fd6d	-0.051267076
150	0xbbe38994	-0.006943891
151	0xbe148df2	-0.14507273
152	0x3d1e5273	0.03865285
153	0xbc1cec1e	-0.009577779
154	0x3dd5b293	0.10434451
155	0x3d864afa	0.065572694
156	0x3d8cda6c	0.06877598
157	0xbd8a1c21	-0.067436464
158	0xbcc36278	-0.023850664
159	0x3d92ad48	0.07161957
160	0xbdd752ce	-0.105138406
161	0xbd163388	-0.036670238
162	0x3dca7307	0.09885221
163	0xbdd224e7	-0.10260945
164	0xbe581b9f	-0.21104287
165	0xbdd5a0b6	-0.10431044
166	0x3e04fcc6	0.1298705
167	0x3d64c692	0.055853434
168	0xbdaa1842	-0.08305408
169	0xbd5e4ece	-0.054274373
170	0x3db4340a	0.08798988
171	0x3c998b72	0.01874325
172	0x3c25ea76	0.010126701
173	0xbe36cde4	-0.17851979
174	0xbd33b08c	-0.04386954
175	0xbdf6e610	-0.120556
176	0x3cbba15f	0.022904096
177	0x3de497cc	0.111617655
178	0xbcdba6f3	-0.026813006
179	0x3d3891ef	0.045061048
180	0x3b02e8d5	0.0019975204
181	0xbdaf426b	-0.0855759
182	0x3d3ed482	0.046589382
183	0x3d8fe326	0.07025747
184	0xbda29dc5	-0.079402484
185	0xbd6c16b5	-0.057638843
186	0xbdcb3d19	-0.09923763
187	0x3de35927	0.11100989
188	0xbd85462b	-0.06507524
189	0xbd3d513c	-0.04622005
190	0xbc57aea3	-0.013164195
191	0xbd2afcad	-0.041744877
192	0x3d77e224	0.0605184
193	0xbd9c3793	-0.076277874
194	0xbdd8e155	-0.10589854
195	0xbd9a82a8	-0.07544452
196	0xbcbf91dc	-0.02338498
197	0xbcee60db	-0.029098919
198	0xbd21655b	-0.0394033
199	0xbd00f7fb	-0.031486493
200	0x3dae2c4b	0.08504542
201	0x3dfb6ab3	0.12276211
202	0xbe131f5e	-0.14367434
203	0x3c485cb1	0.012229131
204	0xbd10d813	-0.035362314
205	0x3cd62a3b	0.026143184
206	0xbdcc9a69	-0.09990389
207	0xbe7b34b3	-0.24531822
208	0xbda96bef	-0.0827254
209	0xbd2e4926	-0.04255023
210	0x3dd2d1a2	0.102938905
211	0xbdae047f	-0.08496951
212	0x3ce961ff	0.028489111
213	0x3d0d3030	0.034469783
214	0xbd0ab9ad	-0.03386848
215	0xbdbbc2e6	-0.09168033
216	0xbcd0c624	-0.025485106
217	0x3cd59ccc	0.026075743
218	0xbdb9c1d7	-0.09070175
219	0xba8fde20	-0.0010976233
220	0xbdc57334	-0.09641114
221	0x3dbbba26	0.09166364
222	0x3d977929	0.07396156
223	0x3e7e07d2	0.2480767
224	0xbcc8a64f	-0.024493365
225	0x3d59a499	0.05313549
226	0xbdb54f9f	-0.08853077
227	0xbd0fedf7	-0.03513905
228	0xbc140526	-0.009034431
229	0x3d6a6cb7	0.057232585
230	0xbc9e9e4f	-0.019362597
231	0xbd61fc92	-0.05517251
232	0xbdebeab2	-0.11519374
233	0x3e6f2831	0.23355176
234	0x3da548f3	0.080705546
235	0x3d1577fc	0.03649138
236	0x3d5278e7	0.051384833
237	0xbdf9e689	-0.12202174
238	0xbdb2935a	-0.08719511
239	0x3c24ca0e	0.010057939
240	0xbd733a72	-0.05938191
241	0xbbeabd0a	-0.0071636485
242	0xbdfa3117	-0.122163944
243	0xba9d6fe6	-0.0012011498
244	0x3d250b17	0.04029378
245	0x3dbb0d2f	0.09133374
246	0xbdc91606	-0.09818654
247	0xbdaf49c9	-0.08558995
248	0xbe15a295	-0.14612801
249	0x3daa2489	0.0830775
250	0xbde78541	-0.11304713
251	0x3d58c500	0.05292225
252	0x3dae5461	0.08512188
253	0x3c28019f	0.010254293
254	0x3cea4ba8	0.028600529
255	0x3e2b6ece	0.16741487

network_body._body_endoder.seq_layers.2.bias f4 [128]
0	0x00000000	0.0
1	0x00000000	0.0
2	0x00000000	0.0
3	0x00000000	0.0
4	0x00000000	0.0
5	0x00000000	0.0
6	0x00000000	0.0
7	0x00000000	0.0
8	0x00000000	0.0
9	0x00000000	0.0
10	0x00000000	0.0
11	0x00000000	0.0
12	0x00000000	0.0
13	0x00000000	0.0
14	0x00000000	0.0
15	0x00000000	0.0
16	0x00000000	0.0
17	0x00000000	0.0
18	0x00000000	0.0
19	0x00000000	0.0
20	0x00000000	0.0
21	0x00000000	0.0
22	0x00000000	0.0
23	0x00000000	0.0
24	0x00000000	0.0
25	0x00000000	0.0
26	0x00000000	0.0
27	0x00000000	0.0
28	0x00000000	0.0
29	0x00000000	0.0
30	0x00000000	0.0
31	0x00000000	0.0
32	0x00000000	0.0
33	0x00000000	0.0
34	0x00000000	0.0
35	0x00000000	0.0
36	0x00000000	0.0
37	0x00000000	0.0
38	0x00000000	0.0
39	0x00000000	0.0
40	0x00000000	0.0
41	0x00000000	0.0
42	0x00000000	0.0
43	0x00000000	0.0
44	0x00000000	0.0
45	0x00000000	0.0
46	0x00000000	0.0
47	0x00000000	0.0
48	0x00000000	0.0
49	0x00000000	0.0
50	0x00000000	0.0
51	0x00000000	0.0
52	0x00000000	0.0
53	0x00000000	0.0
54	0x00000000	0.0
55	0x00000000	0.0
56	0x00000000	0.0
57	0x00000000	0.0
58	0x00000000	0.0
59	0x00000000	0.0
60	0x00000000	0.0
61	0x00000000	0.0
62	0x00000000	0.0
63	0x00000000	0.0
64	0x00000000	0.0
65	0x00000000	0.0
66	0x00000000	0.0
67	0x00000000	0.0
68	0x00000000	0.0
69	0x00000000	0.0
70	0x00000000	0.0
71	0x00000000	0.0
72	0x00000000	0.0
73	0x00000000	0.0
74	0x00000000	0.0
75	0x00000000	0.0
76	0x00000000	0.0
77	0x00000000	0.0
78	0x00000000	0.0
79	0x00000000	0.0
80	0x00000000	0.0
81	0x00000000	0.0
82	0x00000000	0.0
83	0x00000000	0.0
84	0x00000000	0.0
85	0x00000000	0.0
86	0x00000000	0.0
87	0x00000000	0.0
88	0x00000000	0.0
89	0x00000000	0.0
90	0x00000000	0.0
91	0x00000000	0.0
92	0x00000000	0.0
93	0x00000000	0.0
94	0x00000000	0.0
95	0x00000000	0.0
96	0x00000000	0.0
97	0x00000000	0.0
98	0x00000000	0.0
99	0x00000000	0.0
100	0x00000000	0.0
101	0x00000000	0.0
102	0x00000000	0.0
103	0x00000000	0.0
104	0x00000000	0.0
105	0x00000000	0.0
106	0x00000000	0.0
107	0x00000000	0.0
108	0x00000000	0.0
109	0x00000000	0.0
110	0x00000000	0.0
111	0x00000000	0.0
112	0x00000000	0.0
113	0x00000000	0.0
114	0x00000000	0.0
115	0x00000000	0.0
116	0x00000000	0.0
117	0x00000000	0.0
118	0x00000000	0.0
119	0x00000000	0.0
120	0x00000000	0.0
121	0x00000000	0.0
122	0x00000000	0.0
123	0x00000000	0.0
124	0x00000000	0.0
125	0x00000000	0.0
126	0x00000000	0.0
127	0x00000000	0.0

action_model._continuous_distribution.log_sigma f4 [1, 3]
0	0x00000000	0.0
1	0x00000000	0.0
2	0x00000000	0.0

action_model._continuous_distribution.mu.weight f4 [3, 128]
0	0xbc198f53	-0.00937255
1	0x3cd6fe2b	0.026244244
2	0xbd1d04ef	-0.038334783
3	0xbc0413e4	-0.008061383
4	0xbcc29b71	-0.02375576
5	0xbca0e1bc	-0.019638889
6	0x3c3a8b4c	0.01138575
7	0x3c874240	0.016511083
8	0xbc9ba67b	-0.019000283
9	0xba65b1ea	-0.0008762168
10	0x3cb2ee17	0.021842046
11	0x3d10c43e	0.0353434
12	0x3c99daa7	0.01878102
13	0xbc84b2d3	-0.016198551
14	0xbc34e903	-0.011041882
15	0xbc3e9923	-0.01163319
16	0x3c414d4b	0.011798213
17	0xbbf6f70d	-0.007536775
18	0xbc6f0985	-0.014589672
19	0x3c6f7e7f	0.014617561
20	0x3c41e81b	0.011835123
21	0xbbbb7418	-0.0057206266
22	0x3bd3ac7a	0.00645977
23	0xbc84d461	-0.016214551
24	0xbc523333	-0.01282959
25	0x3ca546ea	0.020175416
26	0xbc4453b4	-0.011982847
27	0xbb022887	-0.0019860582
28	0xba9c6e7f	-0.0011934786
29	0xbd189a8b	-0.03725676
30	0xbce342b0	-0.02774176
31	0x3ba521e7	0.005039442
32	0x3c29850f	0.010346665
33	0x3b0d3d00	0.0021551251
34	0x3b0dacfc	0.0021618
35	0xbbea5960	-0.0071517676
36	0x3c9e22a4	0.019303627
37	0x3b2038f7	0.0024448016
38	0xbce61f7a	-0.028091181
39	0x3c96db04	0.018414982
40	0xbceebf35	-0.029143909
41	0xbc23e02b	-0.010002176
42	0xbac4b9c2	-0.0015008973
43	0xbc322d83	-0.010875109
44	0xbbca33c7	-0.006170723
45	0x3c0c6547	0.008569068
46	0x3d309e90	0.043119967
47	0x3c281dd7	0.010261021
48	0xbbb48c25	-0.0055098706
49	0x3c633ca7	0.013869441
50	0x39f7cfb3	0.0004726626
51	0x3d22d0e4	0.039749995
52	0xbb7dd993	-0.003873442
53	0xbcae3797	-0.021266742
54	0x3c64ea87	0.013971931
55	0x3d181a30	0.03713435
56	0xbc2a9217	-0.010410807
57	0xbcab6bf7	-0.020925505
58	0x3a1aa762	0.0005899576
59	0x3abb7c71	0.0014304054
60	0x3c1c5bbe	0.009543357
61	0x3cb940e1	0.022613944
62	0x3c764ca8	0.015032925
63	0xbc5a1dcb	-0.013312767
64	0xbcef81e2	-0.029236738
65	0x3b77f61d	0.0037835904
66	0x3ab6dd2e	0.0013951415
67	0xbcbc94e3	-0.023020213
68	0x3c6889da	0.014193023
69	0x3b7ffcb3	0.0039060533
70	0x3c1873d1	0.0093049565
71	0xbc1dc9da	-0.009630645
72	0xbc01e70d	-0.007928622
73	0x3bc9c800	0.006157875
74	0xbb5eac82	-0.0033977334
75	0xbc52ef98	-0.012874506
76	0x3c790c40	0.0152006745
77	0x3cc18005	0.023620615
78	0x3c8b5a2f	0.017010776
79	0xbcc93561	-0.024561586
80	0xbbf11808	-0.007357601
81	0xbcf5fc32	-0.030027483
82	0x3aa28e22	0.0012401978
83	0xbc48fcb2	-0.0122672785
84	0xbcc7a2eb	-0.024369678
85	0xbb2ed4a9	-0.0026677048
86	0xbba78702	-0.0051125297
87	0xbbc99a43	-0.0061524226
88	0xbc0160b9	-0.007896596
89	0xbc37e194	-0.011223216
90	0x3c266d46	0.010157889
91	0xbc4e08ab	-0.012575309
92	0xbc810e18	-0.01575379
93	0xbae4db7a	-0.0017460429
94	0x3a0bb0d6	0.000532878
95	0x3d587403	0.052845012
96	0xbd3e6608	-0.046484023
97	0xbcb39948	-0.021923676
98	0x3ac92c4c	0.0015348285
99	0xbc9e0bcf	-0.01929274
100	0x3c5dad40	0.013530076
101	0x3ca79d2f	0.020460693
102	0xbb52395a	-0.0032077641
103	0x3ce91a58	0.028454944
104	0xbba37bb8	-0.0049891137
105	0xbd0addc4	-0.0339029
106	0x3cda10d2	0.026619349
107	0xbbd3101d	-0.00644113
108	0xbb81ec6b	-0.003964951
109	0xbc8d8e07	-0.017279638
110	0x3d526f90	0.051375926
111	0x3cf02e0b	0.02931883
112	0x3d087928	0.03331867
113	0x3c0a7a07	0.008451945
114	0x3c3c93e4	0.011509869
115	0xbcc5e72d	-0.024158085
116	0xbcc872ed	-0.024468863
117	0xbc5087fd	-0.012727735
118	0x3bb2ced8	0.0054567866
119	0xbc981418	-0.018564269
120	0x3bea55a7	0.007151324
121	0xbcac6b41	-0.021047236
122	0xbc8ddcd2	-0.01731721
123	0xbcec1fab	-0.028823694
124	0xbc9bb39f	-0.019006548
125	0x3c79acb5	0.0152389305
126	0xbbb887bc	-0.005631415
127	0xbc293f69	-0.01033006
128	0xbce44477	-0.027864678
129	0xbcc5d91e	-0.024151381
130	0x3cf029c2	0.029316787
131	0x3ca1cfa7	0.019752337
132	0xbbf6bf60	-0.007530138
133	0x3b548110	0.003242556
134	0x3d2a6a23	0.041605126
135	0xbc82bde0	-0.01595968
136	0xbc828762	-0.015933696
137	0xbcad9d82	-0.02119327
138	0xbae8109b	-0.0017705144
139	0x3cce0b30	0.025151819
140	0xbbdf1112	-0.006807455
141	0xbc886c47	-0.016653193
142	0xbb98ba5b	-0.004660887
143	0x3c9a4b6b	0.01883479
144	0x3cad84ac	0.021181427
145	0xbc6cfc80	-0.014464498
146	0x3d0e2b20	0.034709096
147	0x3a5ae0d3	0.00083495415
148	0xbb8b9883	-0.004260124
149	0xbc27283e	-0.010202466
150	0xbd00ce17	-0.031446543
151	0x3c3971a8	0.011318602
152	0x3b8e51e6	0.004343259
153	0xbcd967b7	-0.026538713
154	0xbc9dd4e0	-0.019266546
155	0x3c832e36	0.016013246
156	0x3c9971d8	0.018731043
157	0xbc0da7a8	-0.008645929
158	0xbbf52053	-0.00748066
159	0x3c550e4b	0.013003896
160	0x3ce69523	0.028147286
161	0xbc8fd153	-0.017555868
162	0x3d266cf0	0.040631235
163	0x3b40f11c	0.0029440587
164	0x3c9c61db	0.01908963
165	0x38a5a66d	7.898812e-05
166	0x3c94e337	0.01817475
167	0xbad063e0	-0.0015898906
168	0xbccfff30	-0.025390238
169	0x3ca9208a	0.020645399
170	0xba2b583d	-0.0006536281
171	0xbca35880	-0.019939661
172	0x3a4387e0	0.00074589066
173	0x3ba1c2df	0.0049365605
174	0x3c950f6f	0.018195836
175	0xbb528ab7	-0.0032126138
176	0xbc584ded	-0.013202173
177	0x3c9414c3	0.018076306
178	0xbc245ed3	-0.0100323735
179	0xbc595dd7	-0.013267002
180	0xbbc66339	-0.0060543087
181	0xbb235b8e	-0.0024926397
182	0x3b9b3c1a	0.0047373893
183	0xbc55c63f	-0.013047754
184	0x3bd5238f	0.006504483
185	0xbc85dfd7	-0.016342087
186	0x3d038fa2	0.0321194
187	0xbb4f5b8d	-0.0031640262
188	0x396a6922	0.00022355144
189	0xbcd98123	-0.026550835
190	0xbd048bb3	-0.03235979
191	0x3d383dea	0.04498092
192	0x3b873629	0.0041263294
193	0xbb0cb5bf	-0.0021470634
194	0x3bd0571d	0.006358041
195	0xbbba5ebf	-0.005687564
196	0x3c41aa17	0.011820338
197	0x3b838767	0.004013944
198	0x3caee3aa	0.021348793
199	0xbc8c83a6	-0.017152619
200	0xbca85b69	-0.0205514
201	0xbb5d6d03	-0.00337869
202	0xbcd2116b	-0.025643071
203	0xbb89ace5	-0.004201519
204	0x3cdeaccb	0.027182003
205	0x3cbcddc5	0.023054967
206	0x3cd40a5d	0.025883848
207	0x3c23b98f	0.009992971
208	0xbc00536f	-0.007832392
209	0x3cc5d0d1	0.024147423
210	0xbc86310b	-0.016380807
211	0xbbbd58fe	-0.005778431
212	0x3c5c85d8	0.013459645
213	0x3cc566c6	0.024096858
214	0x3c8be2ba	0.017075885
215	0xb8f0325f	-0.00011453474
216	0x3c766c2d	0.01504044
217	0xbba37343	-0.0049881055
218	0xbcc844a6	-0.024446797
219	0xbc9f8eab	-0.01947721
220	0x3d0e0d21	0.03468049
221	0x3b449712	0.0029997271
222	0xbc1bf67a	-0.009519214
223	0xbcce2b70	-0.025167197
224	0xbc879563	-0.016550725
225	0xbd16d49c	-0.036823854
226	0x3c2613db	0.01013657
227	0xbcc32a7f	-0.023823975
228	0xbcc41896	-0.023937505
229	0xbc7a4188	-0.015274413
230	0x3d01a123	0.031647813
231	0x3c3b22b3	0.011421847
232	0xbb40ab6d	-0.0029399053
233	0x3c991711	0.018687757
234	0xbbe374b8	-0.006941404
235	0x3bb54cc7	0.005532834
236	0xbcac0ccf	-0.021002201
237	0xbc8fb787	-0.017543567
238	0xbb9bdf8f	-0.004756875
239	0x3cb72d4d	0.022360468
240	0xbcb6579f	-0.022258578
241	0x3c602e5d	0.013682929
242	0xbbc58b3c	-0.006028561
243	0xbce6b3b5	-0.028161863
244	0xbcd3b0ff	-0.025841234
245	0x3c614833	0.013750124
246	0x3c0556ec	0.0081384
247	0xbba18f0b	-0.004930382
248	0x39c1300b	0.00036847623
249	0xbcf0ea2f	-0.029408542
250	0xbcc0fb77	-0.023557408
251	0x3c806def	0.01567742
252	0x3cd7cec5	0.026343713
253	0xbc047b41	-0.008086027
254	0xbcf31c80	-0.029676676
255	0x3cb61c13	0.022230184

action_model._continuous_distribution.mu.bias f4 [3]
0	0x00000000	0.0
1	0x00000000	0.0
2	0x00000000	0.0

network_body._body_endoder.seq_layers.0.weight f4 [128, 12]
0	0x3cd8769a	0.026423741
1	0xbe63e217	-0.22254215
2	0x3deabf5a	0.11462279
3	0xbe301dfa	-0.17198935
4	0xbeb13a61	-0.34614852
5	0xbdbfd763	-0.09367254
6	0x3dcf8d03	0.10134318
7	0x3f0f0dea	0.55880606
8	0x3e2f84c2	0.17140487
9	0xbf0cd1e0	-0.55007744
10	0x3e864829	0.2622693
11	0x3e38af0c	0.18035525
12	0xbeee52ef	-0.46547648
13	0x3ea25c00	0.31710815
14	0xbe8f5c27	-0.27999994
15	0x3e594b0a	0.21220031
16	0xbd8b13e4	-0.06790903
17	0xbea1f7f8	-0.31634498
18	0x3e92fb74	0.28707469
19	0xbea49920	-0.32148075
20	0xbe3cf919	-0.18454398
21	0xbeb0d587	-0.34537908
22	0x3f0fbc28	0.5614648
23	0xbe838f6c	-0.2569536
24	0x3e8c5c87	0.27414343
25	0xbd7f224c	-0.062288567
26	0xbdbaf063	-0.091278814
27	0x3e3a6b99	0.18205108
28	0xbe29c0f0	-0.16577506
29	0x3f26740b	0.6502082
30	0xbda1aaed	-0.0789393
31	0x3ed830d4	0.42224753
32	0x3eb28dab	0.3487371
33	0xbeddc990	-0.43317842
34	0xbddc6e72	-0.10763253
35	0x3e1606a9	0.14650978
36	0xbd9c99ec	-0.07646546
37	0xbcbd21bb	-0.023087373
38	0x3b46a427	0.0030310245
39	0xbe566d7b	-0.20940201
40	0xbdbf4b28	-0.09340507
41	0xbe552f38	-0.20818794
42	0x3ea68a61	0.3252745
43	0x3e628ff4	0.22125226
44	0xbecfaec9	-0.40563038
45	0x3e8a18af	0.26971957
46	0x3d2ab690	0.04167801
47	0x3da34755	0.0797259
48	0xbde19206	-0.1101418
49	0xbe12803b	-0.14306729
50	0xbe16d080	-0.14727974
51	0x3e1ea7b6	0.15493664
52	0x3e2a2515	0.16615708
53	0xbef2bc49	-0.47409275
54	0x3d0192df	0.031634208
55	0x3d2ee541	0.042699102
56	0x3ec8d3ab	0.3922399
57	0x3e99da80	0.30049515
58	0x3e9e0f5d	0.30871096
59	0xbea59943	-0.32343492
60	0x3eccc728	0.39995694
61	0xbefa1fa7	-0.48852274
62	0xbe4d916c	-0.20075005
63	0x3da96577	0.08271306
64	0xbbe13d4c	-0.0068737622
65	0x3eb0ae32	0.345079
66	0x3ea7b83d	0.3275775
67	0x3e0970a3	0.13421874
68	0xbea6a712	-0.3254934
69	0xbd512c2b	-0.051067512
70	0x3d5dc4bb	0.054142695
71	0xbe4fa6f0	-0.20278525
72	0xbe7501b2	-0.23926428
73	0xbe1daf02	-0.15398791
74	0x3d90c85d	0.07069466
75	0x3e445c32	0.19175795
76	0x3f1fb55f	0.62386125
77	0x3db25186	0.087069556
78	0x3e991368	0.29897618
79	0x3ee8bafd	0.4545516
80	0x3e9ccc6b	0.3062471
81	0xbd15ad52	-0.036542244
82	0xbdbcb81d	-0.09214804
83	0x3ec047dd	0.37554827
84	0x3e87f2bf	0.26552388
85	0x3e6bca15	0.23026307
86	0x3e855254	0.26039374
87	0xbeac3058	-0.33630633
88	0xbf18cc27	-0.5968651
89	0xbd32e628	-0.043676525
90	0x3e587d87	0.21141635
91	0xbf86d033	-1.0532287
92	0xbe902d4c	-0.2815956
93	0x3ddcc383	0.107794784
94	0xbeea6ae3	-0.45784673
95	0xbec03c07	-0.37545797
96	0xbb974cf5	-0.0046173283
97	0x3def0a01	0.1167183
98	0xbef1c40c	-0.47219884
99	0xbc5a971a	-0.0133416895
100	0xbdc8a61c	-0.09797308
101	0x3c4a2f5b	0.012340392
102	0xbe2c08c8	-0.16800225
103	0xbee70a9a	-0.45125276
104	0xbdac6631	-0.08417929
105	0xbe798b57	-0.2436956
106	0xbe9745f1	-0.2954555
107	0xbcbf4132	-0.023346517
108	0xbea93b53	-0.33053073
109	0xbb50f707	-0.003188552
110	0xbeb16c4d	-0.3465294
111	0xbe27180b	-0.16317765
112	0xbe8eb3a0	-0.27871418
113	0xbdb9a90c	-0.09065446
114	0x3e6f657b	0.23378555
115	0x3e8ed120	0.27893925
116	0x3ea00c71	0.31259492
117	0x3ecf241a	0.4045723
118	0xbe861ac5	-0.261923
119	0x3f1196bf	0.56870645
120	0x3eb9e19a	0.36304933
121	0x3e9d571f	0.3073053
122	0xbeb4f79b	-0.35345158
123	0x3c7dfe40	0.015502512
124	0xbe056c7c	-0.13029665
125	0x3f2e0413	0.67974967
126	0xbde967bc	-0.11396739
127	0x3a6f6917	0.0009132786
128	0x3e22ab9f	0.15885781
129	0xbe661540	-0.22469044
130	0xbe1cf3f8	-0.15327442
131	0xbd1bf3bb	-0.038074236
132	0xbcd150e4	-0.025551267
133	0x3e36b54c	0.17842597
134	0xbe2d54e3	-0.16926913
135	0x3e38a736	0.18032536
136	0x3e6341aa	0.22193018
137	0x3e4b3887	0.19845782
138	0x3f3fe3f0	0.7495718
139	0xbdba758c	-0.091044515
140	0x3f0c7143	0.54860324
141	0x3e54e3ef	0.20790075
142	0xbd5ed4d5	-0.05440219
143	0xbe90fca0	-0.28317738
144	0x3d849c5e	0.06475137
145	0xbc23ae72	-0.0099903215
146	0xbc57bd5f	-0.013167708
147	0x3e6c774c	0.23092383
148	0xbeb1c105	-0.34717575
149	0xbc904a05	-0.01761342
150	0x3ef2865a	0.47368127
151	0x3e378979	0.17923535
152	0x3ebf61ce	0.37379307
153	0x3f225798	0.6341491
154	0x3e7ca8af	0.24673723
155	0xbee5b721	-0.4486628
156	0x3e154b08	0.14579403
157	0x3c41479e	0.01179686
158	0xbf43a2c8	-0.7642026
159	0xbe93bca7	-0.28854868
160	0x3f49c39c	0.788141
161	0xbc630eca	-0.013858506
162	0x3e55949d	0.20857473
163	0x3ed80bbe	0.4219646
164	0xbee99654	-0.45622504
165	0xbe2ad8a0	-0.16684198
166	0x3dfa9441	0.122353084
167	0x3f1a8b30	0.60368633
168	0x3c25a915	0.010111113
169	0x3d01a356	0.03164991
170	0x3e81dfeb	0.25366148
171	0xbf191705	-0.5980075
172	0xbed9c0c1	-0.42529872
173	0x3e1a28d1	0.15054633
174	0xbef2e630	-0.47441244
175	0x3e1f8968	0.1557976
176	0xbda69753	-0.081343316
177	0x3e302d69	0.17204823
178	0xbed50731	-0.4160705
179	0x3e1ba482	0.15199474
180	0xbe15bafe	-0.14622113
181	0x3cb5d927	0.022198273
182	0x3ae64262	0.0017567391
183	0xbecca989	-0.39973095
184	0x3e02eb5e	0.12785098
185	0x3eb5f212	0.35536247
186	0xbeb93423	-0.3617259
187	0xbeb649a1	-0.3560305
188	0xbda729a6	-0.08162241
189	0x3e744a01	0.23856355
190	0x3e853436	0.26016396
191	0xbe17c759	-0.14822139
192	0x3e302b50	0.17204022
193	0xbe41125d	-0.18854661
194	0xbebdd711	-0.37078145
195	0xbe5215f0	-0.20516181
196	0xbe825bed	-0.2546076
197	0x3d59ceb3	0.05317564
198	0x3f51181b	0.8167741
199	0x3e80fb7f	0.25191876
200	0x3ebf95e5	0.37419048
201	0xbc3159b9	-0.010824614
202	0xbdec67fd	-0.11543272
203	0xbe366e9a	-0.17815629
204	0x3d77a1cb	0.060457032
205	0x3e2de601	0.16982271
206	0xbe844bd1	-0.25839093
207	0x3e170c2a	0.14750734
208	0xbeb8e468	-0.3611176
209	0xbd8e4e7b	-0.06948563
210	0x3e27253b	0.16322796
211	0x3b26254f	0.0025351827
212	0xbda7ed99	-0.08199615
213	0xbda1d201	-0.07901383
214	0x3e279ba1	0.16367961
215	0xbe2429bb	-0.16031544
216	0xbef7c46b	-0.48392043
217	0x3e899a83	0.26875696
218	0x3c03b5e8	0.008038975
219	0xbcb4d3af	-0.022073595
220	0x3eb3f0b7	0.35144588
221	0xbf0f94fe	-0.5608672
222	0xbdc77a39	-0.09740109
223	0xbd02813e	-0.031861536
224	0xbeea3f55	-0.45751444
225	0x3e478bc2	0.19486907
226	0xbbfe423f	-0.007759362
227	0xbe8fbf99	-0.28075865
228	0xbcbb407b	-0.022857895
229	0xbd3b789a	-0.04576931
230	0x3e96f0d2	0.29480606
231	0xbecca5b5	-0.39970174
232	0xbeb99e05	-0.36253372
233	0xbe05feec	-0.13085526
234	0xbd3a987c	-0.045555577
235	0x3e4e31d9	0.20136203
236	0xbf474d40	-0.7785225
237	0x3e0b48d8	0.13602006
238	0x3e428098	0.18994367
239	0x3dab8a87	0.08376031
240	0xbe4e2784	-0.20132262
241	0xbd9e421f	-0.07727455
242	0xbe221cc2	-0.15831283
243	0xbebdbbe4	-0.37057412
244	0x3e9785f8	0.29594398
245	0xbef7bdb2	-0.48386914
246	0x3e4182e4	0.18897587
247	0xbcd76a2e	-0.026295748
248	0x3ea2b2d6	0.31777066
249	0x3e5ad706	0.21371087
250	0xbefa38a3	-0.48871335
251	0xbf404a6e	-0.7511357
252	0xbec90329	-0.39260224
253	0xbdb5f0f6	-0.0888385
254	0x3d79d29c	0.06099187
255	0x3e006e48	0.12542069

network_body._body_endoder.seq_layers.0.bias f4 [128]
0	0x00000000	0.0
1	0x00000000	0.0
2	0x00000000	0.0
3	0x00000000	0.0
4	0x00000000	0.0
5	0x00000000	0.0
6	0x00000000	0.0
7	0x00000000	0.0
8	0x00000000	0.0
9	0x00000000	0.0
10	0x00000000	0.0
11	0x00000000	0.0
12	0x00000000	0.0
13	0x00000000	0.0
14	0x00000000	0.0
15	0x00000000	0.0
16	0x00000000	0.0
17	0x00000000	0.0
18	0x00000000	0.0
19	0x00000000	0.0
20	0x00000000	0.0
21	0x00000000	0.0
22	0x00000000	0.0
23	0x00000000	0.0
24	0x00000000	0.0
25	0x00000000	0.0
26	0x00000000	0.0
27	0x00000000	0.0
28	0x00000000	0.0
29	0x00000000	0.0
30	0x00000000	0.0
31	0x00000000	0.0
32	0x00000000	0.0
33	0x00000000	0.0
34	0x00000000	0.0
35	0x00000000	0.0
36	0x00000000	0.0
37	0x00000000	0.0
38	0x00000000	0.0
39	0x00000000	0.0
40	0x00000000	0.0
41	0x00000000	0.0
42	0x00000000	0.0
43	0x00000000	0.0
44	0x00000000	0.0
45	0x00000000	0.0
46	0x00000000	0.0
47	0x00000000	0.0
48	0x00000000	0.0
49	0x00000000	0.0
50	0x00000000	0.0
51	0x00000000	0.0
52	0x00000000	0.0
53	0x00000000	0.0
54	0x00000000	0.0
55	0x00000000	0.0
56	0x00000000	0.0
57	0x00000000	0.0
58	0x00000000	0.0
59	0x00000000	0.0
60	0x00000000	0.0
61	0x00000000	0.0
62	0x00000000	0.0
63	0x00000000	0.0
64	0x00000000	0.0
65	0x00000000	0.0
66	0x00000000	0.0
67	0x00000000	0.0
68	0x00000000	0.0
69	0x00000000	0.0
70	0x00000000	0.0
71	0x00000000	0.0
72	0x00000000	0.0
73	0x00000000	0.0
74	0x00000000	0.0
75	0x00000000	0.0
76	0x00000000	0.0
77	0x00000000	0.0
78	0x00000000	0.0
79	0x00000000	0.0
80	0x00000000	0.0
81	0x00000000	0.0
82	0x00000000	0.0
83	0x00000000	0.0
84	0x00000000	0.0
85	0x00000000	0.0
86	0x00000000	0.0
87	0x00000000	0.0
88	0x00000000	0.0
89	0x00000000	0.0
90	0x00000000	0.0
91	0x00000000	0.0
92	0x00000000	0.0
93	0x00000000	0.0
94	0x00000000	0.0
95	0x00000000	0.0
96	0x00000000	0.0
97	0x00000000	0.0
98	0x00000000	0.0
99	0x00000000	0.0
100	0x00000000	0.0
101	0x00000000	0.0
102	0x00000000	0.0
103	0x00000000	0.0
104	0x00000000	0.0
105	0x00000000	0.0
106	0x00000000	0.0
107	0x00000000	0.0
108	0x00000000	0.0
109	0x00000000	0.0
110	0x00000000	0.0
111	0x00000000	0.0
112	0x00000000	0.0
113	0x00000000	0.0
114	0x00000000	0.0
115	0x00000000	0.0
116	0x00000000	0.0
117	0x00000000	0.0
118	0x00000000	0.0
119	0x00000000	0.0
120	0x00000000	0.0
121	0x00000000	0.0
122	0x00000000	0.0
123	0x00000000	0.0
124	0x00000000	0.0
125	0x00000000	0.0
126	0x00000000	0.0
127	0x00000000	0.0

network_body._body_endoder.seq_layers.2.weight f4 [128, 128]
0	0x3d9f4e8a	0.07778652
1	0xbdf933d7	-0.12168091
2	0x3cdbe233	0.026841259
3	0xbaa705cd	-0.0012742818
4	0x3c26c024	0.010177646
5	0xbdb64f7a	-0.08901878
6	0x3d3050ae	0.043045692
7	0x3a64dfbd	0.00087308494
8	0xbdb371b1	-0.08761919
9	0x3e23587d	0.15951724
10	0xbdea758e	-0.11448203
11	0xbc52287a	-0.012827033
12	0xbdb9ea6e	-0.09077917
13	0xbcb1d428	-0.02170761
14	0xbdae37b4	-0.08506718
15	0xbde75e5d	-0.11297295
16	0x3d131e53	0.03591759
17	0x3d9d1aef	0.07671153
18	0xbd60e198	-0.054902643
19	0xbd1b710f	-0.037949618
20	0xbc094e0c	-0.008380424
21	0x3d6c87bc	0.057746634
22	0xbe0afd8e	-0.13573286
23	0xbd55e4d4	-0.05222018
24	0xbd9529e9	-0.07283384
25	0x3d78c29b	0.060732465
26	0xbddd2844	-0.10798696
27	0xbc8c74a6	-0.017145466
28	0x3df88fa0	0.12136769
29	0xbd95c2ed	-0.0731257
30	0x3d89da6e	0.06731115
31	0x3d0193cc	0.03163509
32	0xbe77fac9	-0.2421676
33	0xbdd4ae02	-0.10384752
34	0x3bbed2ed	0.005823484
35	0xbd5fbf8e	-0.05462604
36	0x3e3cc412	0.1843417
37	0xbdde1e80	-0.10845661
38	0x3d4217be	0.047385924
39	0xbc3b20c0	-0.011421382
40	0x3dd6c019	0.104858585
41	0x3dff4f6e	0.12466322
42	0xbd5e0733	-0.054206084
43	0xbce1ca10	-0.027562171
44	0x3cf16482	0.029466871
45	0xbc988b41	-0.018621089
46	0xbc0e07f4	-0.008668888
47	0x3dad773f	0.0847001
48	0x3d83554d	0.06412754
49	0xbdd96d2d	-0.10616527
50	0x3dd9db31	0.106375106
51	0x3d47956a	0.048726477
52	0x3e10845e	0.14112994
53	0x3d1b8d69	0.037976656
54	0x3ce2cfa1	0.027686896
55	0x3d43d86b	0.047813814
56	0x3b74cb96	0.0037352792
57	0x3bd245f9	0.006417033
58	0xbded8124	-0.11596897
59	0x3da34bcf	0.07973444
60	0x3d98d5e9	0.07462675
61	0xbd309980	-0.04311514
62	0x3ca0b2cc	0.019616507
63	0xbd897cdc	-0.06713268
64	0xbd142a16	-0.03617295
65	0xbe3bff93	-0.18359213
66	0x3d59b800	0.05315399
67	0xbddc4650	-0.107555985
68	0xbd2d29d5	-0.042276222
69	0x3b5c84fc	0.00336486
70	0x3d259d94	0.04043348
71	0x3b6ff5cf	0.003661502
72	0x3dc30212	0.09521879
73	0x3d056ca6	0.03257432
74	0xbc132ee6	-0.008983349
75	0x3ca76d7c	0.020437948
76	0x3ce80a3f	0.028325198
77	0xbc64eae7	-0.013972021
78	0xbdb2f923	-0.08738925
79	0xbe298fcf	-0.16558765
80	0xbdd611a6	-0.10452585
81	0xbe4ac954	-0.19803363
82	0x3d8795b5	0.06620351
83	0x3be3d50b	0.006952887
84	0xbdb2c055	-0.08728091
85	0x3c9abfa9	0.018890219
86	0x3b85e1cc	0.004085755
87	0x3e01ac63	0.12663417
88	0xbc31cd07	-0.010852105
89	0x3ceee627	0.02916248
90	0x3bde1020	0.0067768246
91	0xbe05a452	-0.13050964
92	0xbcb27866	-0.021785926
93	0xbdbbf3d8	-0.09177369
94	0xbcb6c1cf	-0.022309212
95	0xbcee919a	-0.029122163
96	0x3c847be2	0.016172353
97	0x3dcf3296	0.101170704
98	0x3dbd7fc6	0.092528865
99	0xbc43ea89	-0.011957773
100	0xbcfcd4c8	-0.03086318
101	0xbbbf38bd	-0.005835621
102	0xbc090f08	-0.0083654
103	0xbd3f546f	-0.04671138
104	0xbdd139b1	-0.10216082
105	0xbd7d8e41	-0.061903242
106	0xbe1df358	-0.1542486
107	0xbcdbf718	-0.026851222
108	0xbdcc2587	-0.09968095
109	0x3d0add07	0.033902194
110	0x3b7f649e	0.0038969885
111	0x3dfb140e	0.122596845
112	0x3cc6c1e5	0.024262378
113	0xbdcdd4bb	-0.10050341
114	0xbe0a0d51	-0.13481642
115	0x3c91cf05	0.01779891
116	0xbd91de1f	-0.07122444
117	0xbccfc451	-0.025362166
118	0xbd09a99d	-0.03360902
119	0x3cc2550e	0.023722198
120	0xbcae3dfd	-0.021269793
121	0xbdecf166	-0.115694806
122	0xbdefc0db	-0.11706706
123	0x3e25590d	0.16147251
124	0xbdf98eb9	-0.12185425
125	0x3d9a204e	0.07525693
126	0x3e4ab64a	0.197961
127	0xbd08f2e7	-0.033434775
128	0x3c780441	0.015137733
129	0x3daf1f86	0.085509345
130	0x3e5fa74f	0.21841167
131	0xbc2e6043	-0.010643068
132	0x3dea9a54	0.11455217
133	0x3c3f7d12	0.011687534
134	0xbbdb3ea9	-0.0066908193
135	0x3d9bd3e0	0.07608771
136	0x3d50912a	0.05091969
137	0xbe1dc544	-0.15407282
138	0x3c017a0f	0.007902636
139	0xbd86ece7	-0.06588154
140	0xbbb5c133	-0.005546713
141	0x3da0f283	0.078587554
142	0xbe2b58e1	-0.16733123
143	0xbd56008b	-0.05224661
144	0xbc8e3ef6	-0.017364006
145	0x3e451d74	0.19249517
146	0x3d1f000c	0.038818404
147	0x3ce4ba6b	0.027920922
148	0xbc753ee1	-0.014968605
149	0xbd85279c	-0.065016955
150	0x3cb159ab	0.021649202
151	0x3d302439	0.043003295
152	0x3ca17d98	0.019713208
153	0x3e6c40f4	0.23071653
154	0x3c214ece	0.009845449
155	0xbd53c554	-0.05170186
156	0xbe14eed8	-0.14544237
157	0x3c441ff9	0.0119705135
158	0xbd726cf2	-0.05918593
159	0x3d828860	0.06373668
160	0xbb87fc5e	-0.0041499576
161	0xbe283041	-0.16424657
162	0xbd5c023e	-0.053713076
163	0x3ddcd353	0.107824944
164	0x3d47e509	0.04880241
165	0xbcf289b4	-0.029606678
166	0x3d031096	0.03199824
167	0x3e46771b	0.19381373
168	0xbdd97a31	-0.10619009
169	0x3d9400f6	0.07226746
170	0x3ce157a2	0.027507607
171	0x3c085e3d	0.008323249
172	0x3cf65ee3	0.030074542
173	0xbdd027bd	-0.101638295
174	0x3d93a0cb	0.07208403
175	0x3dc993de	0.098426566
176	0x3db19138	0.086702764
177	0xbc3346da	-0.010942185
178	0xbd9ee192	-0.07757868
179	0x3d4b4e13	0.049635004
180	0xbda493d1	-0.08036006
181	0xbd08c81b	-0.03339396
182	0x3ca23680	0.019801378
183	0xbe44cfc1	-0.19219877
184	0x3d99fd2d	0.075189926
185	0xbd3909d1	-0.045175377
186	0xbd075cbe	-0.03304743
187	0x3df69498	0.12040061
188	0x3d466933	0.04844017
189	0x3c59c904	0.013292555
190	0xbdb81809	-0.08988959
191	0x3c99e1f7	0.018784506
192	0x3d070f73	0.032973718
193	0xbcfd91a2	-0.030953232
194	0x3d8ba062	0.068177
195	0x3da17549	0.078836985
196	0xbd8639bb	-0.0655398
197	0xbd001151	-0.031266514
198	0xbc6ea9c9	-0.014566847
199	0x3c15f2ca	0.009152124
200	0x3aa152f4	0.0012308047
201	0xbd1f9a7c	-0.038965687
202	0x3dbfa2c4	0.09357217
203	0x3dff25b1	0.12458361
204	0xbdc44a79	-0.09584517
205	0xbd1399b2	-0.036035247
206	0xbdb8852d	-0.09009776
207	0x3d2f4081	0.042786125
208	0x3c841c6a	0.01612683
209	0xbe377179	-0.1791438
210	0xbd42969c	-0.047506914
211	0xbab75b70	-0.0013989042
212	0xbbf48691	-0.0074623306
213	0x3dc6dbeb	0.09709915
214	0xbdf8d8f9	-0.12150759
215	0x3cc544b1	0.024080606
216	0xbde91823	-0.11381557
217	0x3e4f4927	0.20242749
218	0x3e38adc0	0.1803503
219	0x3e3b8a04	0.18314368
220	0x3cfda540	0.030962586
221	0xbe2f1a72	-0.17099932
222	0xbd60b2a3	-0.05485786
223	0x3d64ef3e	0.05589222
224	0xbdf6c24b	-0.12048777
225	0xbd0cb0ce	-0.0343483
226	0x3d7a83d2	0.06116087
227	0x3da49393	0.0803596
228	0xbde522c0	-0.11188269
229	0x3c54eb6d	0.012995583
230	0xbd4d8f4d	-0.05018549
231	0x3dafb36e	0.08579145
232	0xbd4c78f8	-0.049920052
233	0xbd513008	-0.051071197
234	0xbd7754b2	-0.060383506
235	0xbbc1c476	-0.0059133125
236	0xbd8a9e47	-0.0676847
237	0x3de478b5	0.111558355
238	0x3cf67d9f	0.030089198
239	0x3ca582c8	0.020203963
240	0x3a06313b	0.000511903
241	0x3e1a5d49	0.15074648
242	0xbd0fa9f2	-0.03507418
243	0xbdec1610	-0.115276456
244	0xbe260d2b	-0.1621596
245	0x3ddd0029	0.10791046
246	0xbd5bf32d	-0.053698707
247	0x3c834782	0.016025309
248	0x3d219dda	0.03945718
249	0x3e0a8feb	0.13531463
250	0xbdb9dc2a	-0.09075196
251	0x3e57eae1	0.21085693
252	0xbc86dabb	-0.01646172
253	0x3dd52ad1	0.10408557
254	0xbdfc273e	-0.12312172
255	0x3db50062	0.08837964

network_body._body_endoder.seq_layers.2.bias f4 [128]
0	0x00000000	0.0
1	0x00000000	0.0
2	0x00000000	0.0
3	0x00000000	0.0
4	0x00000000	0.0
5	0x00000000	0.0
6	0x00000000	0.0
7	0x00000000	0.0
8	0x00000000	0.0
9	0x00000000	0.0
10	0x00000000	0.0
11	0x00000000	0.0
12	0x00000000	0.0
13	0x00000000	0.0
14	0x00000000	0.0
15	0x00000000	0.0
16	0x00000000	0.0
17	0x00000000	0.0
18	0x00000000	0.0
19	0x00000000	0.0
20	0x00000000	0.0
21	0x00000000	0.0
22	0x00000000	0.0
23	0x00000000	0.0
24	0x00000000	0.0
25	0x00000000	0.0
26	0x00000000	0.0
27	0x00000000	0.0
28	0x00000000	0.0
29	0x00000000	0.0
30	0x00000000	0.0
31	0x00000000	0.0
32	0x00000000	0.0
33	0x00000000	0.0
34	0x00000000	0.0
35	0x00000000	0.0
36	0x00000000	0.0
37	0x00000000	0.0
38	0x00000000	0.0
39	0x00000000	0.0
40	0x00000000	0.0
41	0x00000000	0.0
42	0x00000000	0.0
43	0x00000000	0.0
44	0x00000000	0.0
45	0x00000000	0.0
46	0x00000000	0.0
47	0x00000000	0.0
48	0x00000000	0.0
49	0x00000000	0.0
50	0x00000000	0.0
51	0x00000000	0.0
52	0x00000000	0.0
53	0x00000000	0.0
54	0x00000000	0.0
55	0x00000000	0.0
56	0x00000000	0.0
57	0x00000000	0.0
58	0x00000000	0.0
59	0x00000000	0.0
60	0x00000000	0.0
61	0x00000000	0.0
62	0x00000000	0.0
63	0x00000000	0.0
64	0x00000000	0.0
65	0x00000000	0.0
66	0x00000000	0.0
67	0x00000000	0.0
68	0x00000000	0.0
69	0x00000000	0.0
70	0x00000000	0.0
71	0x00000000	0.0
72	0x00000000	0.0
73	0x00000000	0.0
74	0x00000000	0.0
75	0x00000000	0.0
76	0x00000000	0.0
77	0x00000000	0.0
78	0x00000000	0.0
79	0x00000000	0.0
80	0x00000000	0.0
81	0x00000000	0.0
82	0x00000000	0.0
83	0x00000000	0.0
84	0x00000000	0.0
85	0x00000000	0.0
86	0x00000000	0.0
87	0x00000000	0.0
88	0x00000000	0.0
89	0x00000000	0.0
90	0x00000000	0.0
91	0x00000000	0.0
92	0x00000000	0.0
93	0x00000000	0.0
94	0x00000000	0.0
95	0x00000000	0.0
96	0x00000000	0.0
97	0x00000000	0.0
98	0x00000000	0.0
99	0x00000000	0.0
100	0x00000000	0.0
101	0x00000000	0.0
102	0x00000000	0.0
103	0x00000000	0.0
104	0x00000000	0.0
105	0x00000000	0.0
106	0x00000000	0.0
107	0x00000000	0.0
108	0x00000000	0.0
109	0x00000000	0.0
110	0x00000000	0.0
111	0x00000000	0.0
112	0x00000000	0.0
113	0x00000000	0.0
114	0x00000000	0.0
115	0x00000000	0.0
116	0x00000000	0.0
117	0x00000000	0.0
118	0x00000000	0.0
119	0x00000000	0.0
120	0x00000000	0.0
121	0x00000000	0.0
122	0x00000000	0.0
123	0x00000000	0.0
124	0x00000000	0.0
125	0x00000000	0.0
126	0x00000000	0.0
127	0x00000000	0.0

value_heads.value_heads.extrinsic.weight f4 [1, 128]
0	0xbe0cb4b2	-0.13740805
1	0x3dde7e70	0.1086396
2	0x3d6876c8	0.056753904
3	0xbdf38387	-0.11890321
4	0x3de9c3cc	0.114142984
5	0x3bb78000	0.0055999756
6	0xbe312638	-0.17299736
7	0xbcd27080	-0.02568841
8	0x3ddecbac	0.10878691
9	0xbb1133c0	-0.002215609
10	0xbdf9b5fe	-0.121929154
11	0x3e304d9e	0.17217109
12	0x3d54e328	0.051974446
13	0xbd9fefc4	-0.078094035
14	0xbd18d390	-0.037311137
15	0x3e361c1a	0.17784157
16	0xbddcbf43	-0.10778668
17	0x3d274c40	0.040844202
18	0x3e248966	0.16068038
19	0x39e9fc00	0.00044628978
20	0xbd97d972	-0.07414521
21	0xbe16435c	-0.14674133
22	0x3e405108	0.18780911
23	0xbdcb126c	-0.09915623
24	0x3d156238	0.03647062
25	0xbe19bac0	-0.15012646
26	0x3d9d79d0	0.076892495
27	0xbd4e5308	-0.050372154
28	0xbd98af10	-0.074552655
29	0xbe310320	-0.17286348
30	0x3e019428	0.12654173
31	0xbe30ca61	-0.17264701
32	0x3d64b0e8	0.055832773
33	0x3db0938c	0.08621892
34	0x3e50f6c0	0.20406628
35	0x3dcae1bc	0.09906337
36	0xbdf08480	-0.11744022
37	0xbdb919c8	-0.090381205
38	0x3dbb3a4c	0.091419786
39	0x3dd4420c	0.1036416
40	0x3c8477c0	0.016170382
41	0xbd02dfb8	-0.031951636
42	0xbd8e689e	-0.06953548
43	0xbd232d0c	-0.039837882
44	0x3dae7974	0.08519259
45	0xbd130a1c	-0.035898313
46	0x3e554db4	0.20830423
47	0x3d75f9b8	0.060052603
48	0x3d919808	0.07109076
49	0xbd800540	-0.06251001
50	0x3e2df346	0.16987333
51	0x3e12fd22	0.14354375
52	0x3db4d964	0.088305265
53	0x3d202e58	0.039106697
54	0x3dc876f4	0.097883135
55	0x3e59f9b2	0.21286657
56	0xbc921e98	-0.017836854
57	0x3e30df5a	0.17272702
58	0x3e087f56	0.13329825
59	0xbdbe98e3	-0.093065046
60	0x3de4995c	0.111620635
61	0xbbf578e0	-0.007491216
62	0x3c7e4aa0	0.015520722
63	0xbcff12d8	-0.031136915
64	0x3d5169f8	0.05112645
65	0x3e03e5e0	0.12880659
66	0x3e0688ee	0.13138172
67	0xbe4116d5	-0.18856366
68	0xbe221dba	-0.15831652
69	0xbd74ca28	-0.059763104
70	0xbe0d20d2	-0.13782051
71	0xbd217f8c	-0.03942828
72	0xbcb1a3d8	-0.021684572
73	0xbdf6f9b3	-0.12059345
74	0x3c79a770	0.015237674
75	0xbd1cdb78	-0.03829524
76	0x3e5cc15e	0.21558139
77	0x3e1dbb58	0.15403497
78	0x3e04be60	0.12963247
79	0xbe037560	-0.12837744
80	0xbe33e463	-0.17567591
81	0x3cc7c2c8	0.024384871
82	0xbe04cb01	-0.12968065
83	0x3c97f608	0.018549934
84	0xbe1db3f8	-0.15400684
85	0x3d21e4a0	0.039524674
86	0xbdb41eca	-0.08794935
87	0xbd820a6e	-0.063496456
88	0xbe540982	-0.20706752
89	0xbdad9c7e	-0.08477114
90	0x3da53448	0.080666125
91	0x3e18e720	0.14931917
92	0x3e3a24a8	0.18178046
93	0x3dd76ecc	0.1051918
94	0xbe4ff181	-0.2030697
95	0x3e0f4ece	0.13994905
96	0xbded6f92	-0.11593546
97	0x3ce4fa38	0.027951345
98	0xbe0758ec	-0.13217515
99	0xbcf1a768	-0.02949877
100	0xbe08c744	-0.13357264
101	0x3b8680c0	0.0041047037
102	0x3e564dd2	0.20928124
103	0x3dacb26c	0.08432469
104	0xbd96d890	-0.07365525
105	0xbcc30720	-0.023807108
106	0xbe48b7a8	-0.1960131
107	0xbe53390e	-0.20627233
108	0x3be41fe0	0.0069618076
109	0x3e53aae2	0.20670655
110	0x3da5ab3c	0.08089301
111	0x3bdab9a0	0.0066749603
112	0xbe2368a4	-0.15957886
113	0xbbcfade0	-0.006337866
114	0x3ded35c4	0.115825206
115	0x3df0c488	0.11756235
116	0xbcdb7040	-0.026786923
117	0xba8ebf00	-0.0010890663
118	0xbd854eaa	-0.065091446
119	0x3dbf1240	0.09329653
120	0x3e02f512	0.127888
121	0xbdd2e7fa	-0.10298152
122	0xbd7bb0e4	-0.061447993
123	0xbe0f5296	-0.13996348
124	0x3d992ed8	0.07479638
125	0xbda01bf8	-0.078178346
126	0x3ca9fac8	0.020749465
127	0x3df1c4dc	0.11805126
