results/ppo/FPVBehavior/FPVBehavior-52544.onnx (onnx, 78720 bytes, 7 tensors)

network_body._body_endoder.seq_layers.0.weight f4 [128, 12]
000000 c2 e6 ad 3e dd 30 1a 3f 08 4a 1e 3e 77 f0 11 3d
       0.33965117 0.6023081 0.15457928 0.035629716
000010 b6 55 1f 3e 5b 76 95 3d e1 d2 18 be 41 5d 40 3e
       0.1556004 0.07297965 -0.14924194 0.18785574
000020 0d 11 5b be 2f df d1 be 9d fa d8 bd 1f 26 e5 3e
       -0.21393223 -0.40990588 -0.10594676 0.44755647
000030 cd f9 1a be 7f 8d b0 3d c8 de 49 bf 5f 13 83 be
       -0.15134354 0.08620738 -0.7885556 -0.25600716
000040 65 33 70 be b4 66 9b 3e 2a a8 97 bd b7 96 c7 3c
       -0.23457105 0.30351794 -0.074051216 0.024363859
000050 99 b4 89 be 6c f7 ae 3d 14 2d 02 bb 43 a8 3c bf
       -0.26895598 0.08543286 -0.0019863294 -0.73694247
000060 ec 57 11 3e 7b 69 9a 3e 0d 99 a2 3e 86 d0 26 3e
       0.14193696 0.301586 0.31757393 0.16290483
000070 85 1b c8 3d 7c 8b 90 3e 6a e7 06 3e 83 37 07 bf
       0.09770874 0.28231418 0.13174215 -0.5281908
000080 52 d7 ab 3e 56 48 2e be 9d 55 13 3e a6 c4 aa be
       0.33562714 -0.17019781 0.14388128 -0.33353156
000090 99 35 5a bd ca ab ff 3e 5e a3 b1 be 85 0c 29 3d
       -0.05327377 0.49935752 -0.34694952 0.041271705
0000a0 77 14 6a be 21 7d 62 be 1a 7f db 3d 5c d5 34 3d
       -0.22859369 -0.22118045 0.10717602 0.044148788
0000b0 3c 07 c2 be 10 a2 51 bd eb f8 63 bd 1c 74 c1 3c
       -0.37896144 -0.051179945 -0.05565731 0.023614936
0000c0 14 fa ca 3d 68 c3 1d bd ed 59 42 3f 22 09 6d bd
       0.0991098 -0.038516432 0.75918466 -0.057870038
0000d0 62 b9 8a 3e 5a 89 c4 bc 1b 9a 5d bc a6 f9 a1 3e
       0.2709456 -0.023991276 -0.013525511 0.3163578
0000e0 0c 3e 11 3d 36 ef 44 3d 63 04 cc 3e 36 74 b2 bd
       0.035459563 0.04807969 0.39847097 -0.08713572
0000f0 1b 5f bb 3d e0 65 8b be 78 24 2c 3e 40 22 ac 3d
       0.09148999 -0.27226162 0.16810787 0.0840497
000100 ed 8b cf be 85 a1 1d 3b f7 5f fd be 88 6b a6 3e
       -0.40536442 0.0024052572 -0.49487278 0.32503915
000110 cd 77 49 3e 4f da f1 bd 3c 85 fc 3e 4a 27 18 be
       0.19674607 -0.11809217 0.493204 -0.14858738
000120 23 86 30 3e 17 c0 b6 be b0 f8 12 3d c7 58 0b be
       0.17238669 -0.35693428 0.035881698 -0.13608085
000130 1e 5f 01 be e6 6d 95 be 04 79 91 3e 9e 50 39 3e
       -0.1263394 -0.29185408 0.2841264 0.1809716
000140 d7 c4 57 3e 15 54 b0 3e 56 84 f6 bb 6d 29 25 be
       0.21071182 0.3443915 -0.0075231 -0.16129084
000150 57 ab fc be 6a b3 7a 3e ea ac 12 be d1 27 b8 be
       -0.49349472 0.24482504 -0.14323774 -0.35967878
000160 8e d1 4d 3c d4 c8 62 3e 05 79 f3 3d d0 3a 4a be
       0.012562169 0.22146922 0.11888317 -0.19748998
000170 67 1b 26 be de 11 d1 bc f4 dc b9 bd 00 06 6b 3e
       -0.1622139 -0.025521215 -0.090753466 0.22951508
000180 c2 ea 22 3f cd 58 ac be c2 c4 63 3e a0 16 3d be
       0.6363946 -0.336615 0.22243026 -0.18465662
000190 b1 8c 41 3e ae c8 55 be f6 12 8e 3e a3 57 51 3e
       0.18901326 -0.20877334 0.2774884 0.20443587
0001a0 d0 34 23 3e d8 d0 90 be 65 6b a4 3e 03 16 4e 3e
       0.15938115 -0.28284335 0.32113186 0.20125584
0001b0 8b 40 89 3e 73 0d 17 be 09 9a 19 3e 4d f6 41 3e
       0.26807055 -0.14751224 0.15000166 0.18941613
0001c0 36 e8 91 bc fb 2e 9d 3d c6 3a 8c bd c4 0d 36 be
       -0.017810922 0.076749764 -0.06847148 -0.17778689
0001d0 32 e1 22 be 79 83 40 3e cd 70 21 3e db 13 04 be
       -0.15906218 0.18800153 0.15765686 -0.128982
0001e0 89 0d 83 be a2 09 de 3e 12 84 14 3f 9a 23 c5 3d
       -0.25596264 0.43366724 0.58014023 0.09625931
0001f0 5d ed b1 3e ea 9f 83 bc e6 2b 61 bd 0d 04 d9 bd
       0.34751406 -0.016067464 -0.054973505 -0.10596476
000200 2a a5 22 3c 66 80 64 3c dd cb f2 bc 6c 3a d3 be
       0.0099270735 0.013946628 -0.029638225 -0.4125551
000210 b0 2a 0d 3e 29 23 0c be e5 ef 98 bd e3 d1 92 3e
       0.13785815 -0.13685288 -0.07467631 0.28675756
000220 de 8c 54 bd 49 ba 12 bf 11 4d f6 3c 21 e2 59 3d
       -0.051892154 -0.573155 0.030066045 0.05319417
000230 f4 cb 91 bd 2f 15 01 3d b3 f2 a9 3e 75 d8 40 3e
       -0.07118979 0.031514343 0.33192977 0.18832572
000240 73 06 33 bd 67 e0 de 3d b9 ce e0 be 7c ba 81 be
       -0.043707322 0.10882645 -0.43907717 -0.2533759
000250 fa 1e 27 be 2a 93 84 3e 72 4b c2 3d 07 40 dc bc
       -0.1632041 0.25893527 0.09487046 -0.026886
000260 ae 83 5a 3e 63 d2 2e be bd 4a 98 3c 86 0b 36 be
       0.21339294 -0.17072444 0.018590325 -0.17777833
000270 fe 24 0d 3e e4 63 7f bd bc a4 02 bd 86 de f3 3e
       0.13783643 -0.062351122 -0.031895384 0.4763071
000280 e3 d0 d1 3d de 85 d9 bc 31 32 9f 3d 94 2d 86 3e
       0.1024492 -0.02655309 0.07773245 0.26206648
000290 5e cb f4 bc 56 88 a7 be 68 fd 08 3d 44 38 12 3e
       -0.02988213 -0.32721204 0.033444792 0.14279276
0002a0 ae d9 35 bd cd 2a 0f be 2d 7e 9d 3d b2 5d 88 3e
       -0.04439705 -0.13981171 0.07690082 0.26633984
0002b0 27 35 cb be 11 c5 81 3d e0 34 43 be cd 78 83 3d
       -0.3968899 0.063364156 -0.19063139 0.06419525
0002c0 39 5c 51 3e 94 69 13 3e 0e 70 3d 3e e3 ba c6 3d
       0.20445336 0.14395744 0.18499777 0.097036146
0002d0 a0 06 b0 3e c2 12 4e be 76 65 c3 3e 8a 02 66 be
       0.34380054 -0.20124343 0.38163346 -0.22461906
0002e0 ee d9 0a 3f 4e 76 10 be 59 d0 dc be 63 58 00 3e
       0.54238784 -0.1410763 -0.43127707 0.12533717
0002f0 0c a7 7f 3e e1 5d 07 3e 17 21 1c bd c7 98 e9 be
       0.24966067 0.13219406 -0.038117494 -0.45624372
000300 44 23 1b 3f 12 64 54 bc d4 4c 72 bd db 9f 39 3e
       0.60600686 -0.012963312 -0.0591553 0.18127386
000310 49 31 97 3d 47 1a d3 bc 96 d9 50 3f 1b 3b bf 3e
       0.07382447 -0.025769366 0.8158201 0.3734978
000320 63 04 b0 3d ee a3 72 3d 30 ff c3 3c d5 ab 03 3e
       0.08594587 0.059238367 0.023925394 0.12858517
000330 a2 38 e5 bd 0d a8 f7 bd f5 25 16 3d 23 6b c7 3d
       -0.111924425 -0.120926 0.036657292 0.097372316
000340 e0 4b eb be 5d fa 0d be cd 38 ea bd 47 3f a0 bd
       -0.45956326 -0.13865037 -0.11436615 -0.07824569
000350 70 ec 33 bf a6 5c c4 bd ed 20 9a 3d 80 1b d9 3e
       -0.7028265 -0.09587984 0.07525811 0.42403793
000360 41 4c a2 3e b0 f4 01 3d 58 2f 52 bc 45 78 e0 3c
       0.31698802 0.031727493 -0.01282867 0.027401099
000370 a4 e5 75 3d fd f2 ea be 87 4d d1 3e 56 6d ba 3c
       0.060033455 -0.4588851 0.4087946 0.022757214
000380 22 54 0b bf 56 23 0c bf 31 66 44 3e dd a6 b1 3c
       -0.5442525 -0.5474142 0.19179608 0.021686012
000390 7d c6 af 3d 04 eb 55 be ea c0 b2 bd 87 6a 1f be
       0.085827805 -0.20890433 -0.08728202 -0.1556798
0003a0 39 17 3d be c0 ad 96 be f8 c0 81 be 99 4a b5 be
       -0.1846589 -0.29429436 -0.25342536 -0.35408476
0003b0 35 1a 05 bf 42 e2 fb 3d ca 1a 89 be de ad 9a 3d
       -0.51993114 0.12299015 -0.2677825 0.07552694
0003c0 7e 2e 75 3e ab 0e ce 3d 64 53 d3 bd ce e3 ab 3d
       0.23943517 0.100613914 -0.1031864 0.0839306
0003d0 c8 60 13 3f 75 b1 90 be 83 5d 73 be 72 ac 54 3e
       0.5756955 -0.2826039 -0.2376614 0.20768908
0003e0 0c f8 2f 3e 4e 7f ba 3e 4d c8 81 3e 3c af c4 3e
       0.17184466 0.3642525 0.2534813 0.38414943
0003f0 d3 35 f2 3e ec 0e 30 3e c4 5a 2f be e3 82 50 3e
       0.4730669 0.17193192 -0.17124468 0.2036243

network_body._body_endoder.seq_layers.0.bias f4 [128]
000000 d6 89 f9 3a fc 28 10 bb 70 bb f9 38 bb 96 11 3b
       0.0019038271 -0.0021997085 0.00011908158 0.0022215087
000010 0f a1 ff b9 91 d1 88 3a cf e9 cc 3a c6 e2 64 ba
       -0.00048757388 0.0010438432 0.0015633645 -0.00087313016
000020 d7 dc f4 ba 24 b5 81 b9 d8 9d 92 bb 6a a8 4e bb
       -0.0018681538 -0.00024739758 -0.004474383 -0.0031533488
000030 27 7d b6 3b c4 cc 2d b7 f8 34 33 ba 76 86 b9 3a
       0.0055691185 -1.0359279e-05 -0.0006836201 0.0014154452
000040 13 37 69 ba 87 d2 56 bb 5c 1d 22 ba 98 0e 80 3a
       -0.00088964513 -0.0032779293 -0.00061841845 0.0009769974
000050 48 b1 49 bb 43 67 66 ba ec 07 06 bb e3 77 1b b9
       -0.0030775834 -0.0008789191 -0.00204515 -0.00014826613
000060 91 e1 d4 ba 25 91 f1 ba 84 12 f7 3a 63 e3 9f 38
       -0.001624154 -0.0018430097 0.0018850123 7.624065e-05
000070 26 fc a9 3a b8 1f 12 3a c1 64 4d bb 45 bd f7 b8
       0.0012968823 0.00055741845 -0.0031340572 -0.00011813132
000080 76 b7 f7 39 42 ef 2a bb 7f 42 e4 b9 f6 00 5f bb
       0.000472482 -0.002608255 -0.00043537092 -0.0034027672
000090 65 73 a3 ba 65 6e 01 bb be 2c 05 bb c3 25 8f 3a
       -0.0012470303 -0.0019749638 -0.0020320858 0.0010921288
0000a0 95 a6 8f bb 43 ef 3a 3b b4 ee 04 bb 84 3e 82 3a
       -0.004383872 0.0028523959 -0.002028388 0.0009936844
0000b0 a3 24 f4 b9 ef 23 64 bb 41 78 65 3a 86 e2 fc ba
       -0.00046566603 -0.0034811457 0.0008753576 -0.0019293583
0000c0 b0 98 72 39 de 3e d9 3a 6e 96 79 3a 84 52 74 ba
       0.00023135799 0.0016574522 0.0009521012 -0.0009320157
0000d0 57 97 0d bb 77 de 86 ba dc ca 18 ba 5e 16 d6 ba
       -0.0021605098 -0.0010289688 -0.0005828568 -0.001633357
0000e0 1f ac 68 3a 8a d2 75 ba c4 b2 11 bb f9 f7 3f ba
       0.00088757457 -0.0009377381 -0.0022231797 -0.00073230226
0000f0 f8 a2 97 39 a5 18 0f 3b be 6f 2f 3a 9b e3 8d ba
       0.00028922386 0.0021834758 0.0006692371 -0.0010825278
000100 a0 73 1e bb a5 af b2 bb 37 18 1d bb f1 90 34 bb
       -0.0024177805 -0.0054530674 -0.0023970732 -0.0027552212
000110 8f 4f f1 ba 59 03 f1 3a eb 85 b6 ba 0d f0 b4 ba
       -0.0018410551 0.0018387838 -0.0013925409 -0.0013804451
000120 66 5f 80 b9 08 2d 1f 3a 73 7c ef 39 36 dd ea 3a
       -0.0002448514 0.0006072079 0.00045678354 0.0017918709
000130 5e 5e 72 ba 43 25 aa ba be 49 63 bb 43 f6 0b bb
       -0.0009245629 -0.0012981076 -0.0034681405 -0.00213565
000140 40 61 95 3a 32 92 81 3a 07 06 85 3a c2 88 4a ba
       0.0011396781 0.0009885489 0.0010148891 -0.0007726067
000150 7b f9 7a b9 8b 1d 3a 3a e7 81 29 39 6f 82 a9 ba
       -0.00023934797 0.0007099739 0.00016165488 -0.0012932549
000160 af 06 e7 3a 5d a6 59 b9 b7 35 47 3a 89 4f 06 3b
       0.0017625893 -0.00020756708 0.00075992517 0.0020494184
000170 eb 71 cf b9 ac 4d 00 bb 4b ac f2 ba 9f 58 8b 3b
       -0.00039566992 -0.0019577546 -0.0018514482 0.004252508
000180 67 c1 65 ba 65 63 0a 3b 7f f6 11 3a 69 1f b1 ba
       -0.0008764476 0.0021116373 0.0005568042 -0.0013513389
000190 aa cd 13 bb 53 ca b0 ba ce 16 8a b9 f8 9d 3d ba
       -0.0022553005 -0.0013488032 -0.00026338402 -0.0007233317
0001a0 4e db 16 3b d6 cf 65 ba 82 f7 51 ba 6f ee bc ba
       0.00230189 -0.00087666267 -0.0008009599 -0.001441432
0001b0 3e d7 7d 3b a4 d7 b7 ba 1b f6 6a bb 92 02 a0 3a
       0.003873303 -0.0014026058 -0.0035852257 0.0012207797
0001c0 bd c2 2b ba ea d9 06 3a 84 2a 26 ba d9 cf a8 ba
       -0.00065521506 0.0005144166 -0.0006338733 -0.0012879326
0001d0 a9 3a 8e ba 06 ba 99 3b d3 92 ec 3a 6e 2f e2 ba
       -0.0010851222 0.004691365 0.0018049128 -0.0017256567
0001e0 36 ea d1 39 ef 3a 3a bb 4a 54 a5 ba 5c de 94 ba
       0.00040038087 -0.0028416475 -0.0012613621 -0.0011357772
0001f0 78 ac f9 3a 78 6e 0d bb c9 34 04 39 fe 02 23 3b
       0.0019048592 -0.0021580737 0.00012608165 0.002487361

network_body._body_endoder.seq_layers.2.weight f4 [128, 128]
000000 26 54 39 3d 03 07 26 3e 2c 06 22 bc 6f b2 fc 3c
       0.045246266 0.16213612 -0.009889167 0.030846803
000010 0c 64 31 3e 52 86 15 3d d6 5d 71 3d d5 42 cc bd
       0.17323321 0.03650505 0.05892738 -0.09973685
000020 e1 e0 99 bd 8a 57 82 be ad e3 18 3e 47 21 26 be
       -0.07513595 -0.25457412 0.14930601 -0.16223632
000030 0d 85 bf 3d 88 bb fd 3d df 2b 8f 3b 98 8d 69 bd
       0.09351549 0.12389284 0.0043692435 -0.0570198
000040 d0 8b aa 3b 45 51 6b bd f8 43 82 bc 5e 8c b6 3d
       0.005204655 -0.05745055 -0.01590155 0.08913492
000050 8f 3f c7 3a a3 aa 03 3d dd 1b a1 bc d4 8e ba bd
       0.0015201437 0.032145154 -0.019666607 -0.091092736
000060 85 08 6f 3b 50 1a a9 bd 8c 4e 5b 3e 46 51 d9 3d
       0.0036473584 -0.08256972 0.21416682 0.10611205
000070 c6 1b f0 bd 1f 3c aa 3c 96 1d 9d bd 59 66 fc 3d
       -0.11724047 0.020780621 -0.07671659 0.12324209
000080 19 39 b8 3c 81 c4 47 bd 29 86 bc bd e4 25 5a 3d
       0.022488164 -0.048771385 -0.092052765 0.05325879
000090 5d ab 15 3c 6f cd 9e 39 0a 1d f6 bc a4 7c 1c be
       0.0091350945 0.00030289168 -0.030043144 -0.15281922
0000a0 7b 82 7b bd 17 c7 ff 3c 1b 91 99 3d 7a f5 38 bd
       -0.061403733 0.031222863 0.0749838 -0.04515598
0000b0 e0 23 d4 bd d7 87 c7 3d 45 26 dd 3d a4 5c 08 be
       -0.10358405 0.09742706 0.10798315 -0.1331659
0000c0 52 c1 c3 3d 9c 52 ef bd a1 d1 00 bd ab 7b 86 bd
       0.09558357 -0.11685678 -0.031449918 -0.065665565
0000d0 69 24 38 be ad e3 15 be ed a3 16 be e9 4d 44 bd
       -0.1798264 -0.14637633 -0.1471097 -0.047925863
0000e0 4b cf ef 3c 1b fc 1e 3d f8 87 57 3c 49 3f 65 3d
       0.02927365 0.038814645 0.013154976 0.055968557
0000f0 f4 15 b5 3d 63 36 35 bc d2 09 bc 3c 5e c2 d6 3d
       0.08842078 -0.01106033 0.022953901 0.10486291
000100 6d 7d be bc 48 4e e0 bc 89 cf 94 3c e4 09 74 3d
       -0.023253167 -0.027381077 0.018165367 0.059579745
000110 de 33 2f 3e ae 13 bb 3d 4b fc e1 3d a4 b7 a4 3d
       0.1710963 0.09134613 0.11034449 0.08042839
000120 13 68 91 3d a4 81 e5 bd 00 7c 64 3d 8c 35 5e 3d
       0.07099929 -0.112063676 0.055782318 0.054250285
000130 63 b4 5b be e0 85 62 be ff ca 34 3e ec 91 38 3d
       -0.21455531 -0.22121382 0.17655562 0.045061037
000140 d4 ad 58 3d 27 69 96 3d 74 57 ba bc 3e 0e 3a be
       0.05290015 0.07344275 -0.022746779 -0.18169495
000150 a3 77 04 bd bb 0e 93 bd 06 02 d4 3d 4b cb 9c bd
       -0.032340657 -0.07180544 0.103519484 -0.076559626
000160 e6 df 9e 3d e0 f3 db bd b4 cd 68 3d 9a ae d6 3b
       0.07757549 -0.10739875 0.0568368 0.006551576
000170 4f 84 8b 3d c4 a7 99 3d 38 9a 37 bd fa 6f e7 3c
       0.06812345 0.07502702 -0.04482481 0.028251637
000180 35 f6 99 3d e9 ee 89 bc 9d e9 b8 3d 72 a9 37 bd
       0.075176634 -0.016837554 0.09028933 -0.04483933
000190 37 24 09 3c fe cc f9 bd db 40 bd 3d a3 3a b5 bd
       0.008370451 -0.12197302 0.09240886 -0.08849075
0001a0 d9 e1 d9 3c 9c 1d 6a bd c9 a0 00 bd ea c1 ce bd
       0.02659695 -0.057157144 -0.031403337 -0.1009558
0001b0 fc 1d 5b bd 71 cc 5c 3d 5a ec 23 bd 24 85 43 3b
       -0.053495392 0.053905908 -0.040020324 0.0029833997
0001c0 b3 52 dc 3b f0 1e 83 3d 66 f5 1d 3b 6d ed 99 bd
       0.0067237257 0.06402385 0.0024102568 -0.075159885
0001d0 79 e1 09 bd 9c 95 2a 3b e3 fe 9b 3d 17 08 6f 3d
       -0.033662293 0.0026029116 0.07616975 0.058357324
0001e0 34 c6 21 3e 59 f5 13 be f0 88 05 3d a8 c1 21 be
       0.15798265 -0.14449061 0.032601297 -0.1579653
0001f0 e5 a5 a7 bc 9e 68 f5 bd 51 af fb bd a1 4a 2e 3e
       -0.020464847 -0.11982845 -0.12289298 0.17020656
000200 c6 09 b1 bd a0 31 a7 bc ed 19 ea bd 94 30 d4 3d
       -0.08644442 -0.020409405 -0.11430726 0.10360828
000210 60 e6 a3 bc db 4c 98 3d 15 cd b1 3b d1 8f c0 3d
       -0.020007312 0.07436534 0.005426059 0.09402431
000220 c4 ad be 3d 34 97 48 3e c7 7d 73 bd 03 50 32 3d
       0.09310487 0.1958893 -0.059446122 0.043533336
000230 0c db f2 bc 5d 8b e6 3b 93 2f 04 be 9b 70 22 bc
       -0.029645465 0.0070356564 -0.12908773 -0.009914543
000240 02 6c 00 3e fa 2a 9f 3d d7 cb d0 bc 88 54 64 bd
       0.12541202 0.07771869 -0.025487823 -0.055744678
000250 18 80 f0 bd d6 bb fa bd 98 01 66 bb 0b da ac bc
       -0.11743182 -0.12242858 -0.0035096165 -0.021100065
000260 ae e3 90 bd 2f 14 70 3d b6 c8 22 be a1 19 85 3d
       -0.070746765 0.058613 -0.15896878 0.06499029
000270 af 72 f4 bd c8 58 0e 3d 20 2a 80 bc 1f ff 0c be
       -0.11935937 0.034752637 -0.015645087 -0.13769196
000280 b9 d8 cc bc b3 45 a5 3c 37 b1 cf bd 94 09 b4 3d
       -0.025005685 0.020174837 -0.10141223 0.087908894
000290 fb e3 02 3d b4 f5 86 bc fc 50 85 3d e1 5d 13 bd
       0.0319557 -0.016474582 0.06509587 -0.0359782
0002a0 8b 9f bc 3d 67 58 44 3d 25 9a 88 bd 07 38 6c bd
       0.09210118 0.04793587 -0.06670026 -0.05767062
0002b0 bc dd 03 bc 6e 2c 84 bd f6 13 9a 3c 4a c6 ab 3d
       -0.008048471 -0.06453787 0.018808346 0.0838743
0002c0 fa f3 19 be 59 90 ae bc 0e 08 ae bd 31 78 6c bc
       -0.15034476 -0.021309065 -0.0849763 -0.014432953
0002d0 ab cd 50 bd 10 c0 60 3d d4 a9 85 bd ea 36 a8 3c
       -0.05097739 0.054870665 -0.06526533 0.020533998
0002e0 7f ad 3e bd 6d 53 90 3d 17 dd e3 3d 49 60 d6 bd
       -0.046552178 0.07047162 0.11126154 -0.10467584
0002f0 2e 5f 6a 3d f0 df 41 be b1 ba 54 3e a2 71 80 3c
       0.057219677 -0.18933082 0.20774342 0.015679184
000300 bf 75 6e bd 59 a1 0e 3e 71 ae 92 bd 99 c2 0c bd
       -0.05821776 0.13928737 -0.07162178 -0.03436527
000310 90 0c bc bd 4c fc e3 bd 17 a4 93 3c 35 3b 34 3b
       -0.091820836 -0.11132106 0.01802258 0.002750111
000320 1f eb 14 bc 8e 1d 6e 3c 6d 4c 31 be 77 05 e7 bc
       -0.00908926 0.014533414 -0.1731431 -0.028200848
000330 0b 9d a9 bd 34 a6 30 bd 03 f6 d1 ba d3 7f 8a 3d
       -0.08281907 -0.043127254 -0.0016018752 0.06762662
000340 e3 b4 41 3d 97 7c b1 bd 3f c8 96 3b b4 75 95 3d
       0.047291648 -0.08666342 0.004601508 0.07297841
000350 3a bb 06 bd 40 1c 82 bd 03 35 4e bb 13 7c c3 bc
       -0.032893397 -0.063530445 -0.0031464703 -0.023862874
000360 a2 ee f1 3d 06 6d 3a 3d 74 81 e8 3d c0 15 17 be
       0.11813094 0.04551413 0.11352816 -0.1475439
000370 92 89 95 bb a0 55 09 be 7a 33 be 3c 59 0a c4 bc
       -0.004563519 -0.1341157 0.023217905 -0.023930715
000380 af 80 3a 3c 04 a4 29 3b 53 ca 08 3e 11 fb 84 3d
       0.01138322 0.0025885114 0.1335843 0.064931996
000390 ed c8 bf 3d 99 12 75 3c e1 27 bf bd 12 76 f9 bc
       0.093644954 0.014958047 -0.09333778 -0.030451808
0003a0 1c c5 84 3c e4 d8 64 bb 53 2d 90 bd 38 97 13 be
       0.01620727 -0.0034919316 -0.07039895 -0.14413154
0003b0 3d c7 b1 3d 4e 64 41 be d6 28 03 3e 70 e6 02 bd
       0.0868058 -0.1888592 0.12808546 -0.031958044
0003c0 e2 a9 93 3d 6a 4a ed 3d 58 b2 4c 3d 42 00 93 3c
       0.07210137 0.11586459 0.04997477 0.017944459
0003d0 18 0a bb 3d 18 7a 45 3e 98 0d 34 bd 2c 7e ea bd
       0.091327846 0.19284856 -0.043958277 -0.114498466
0003e0 71 0c 56 bc 1e 61 fa bc a2 b4 97 3d 91 54 64 bd
       -0.01306449 -0.030563887 0.074075 -0.05574471
0003f0 8e 13 0b 3e ea d4 cb 3d e8 8b cb 3d 94 18 02 3c
       0.13581678 0.099527195 0.099387944 0.00794043

network_body._body_endoder.seq_layers.2.bias f4 [128]
000000 3e 9b d8 3a 6c b4 2d 39 db fb 19 39 cf 2f c9 b9
       0.0016525758 0.00016565778 0.0001468504 -0.00038373328
000010 8b 60 72 bb 75 36 7c b9 a1 ae ad 3b e4 3e dc b9
       -0.0036983814 -0.0002405288 0.0053003584 -0.00042008527
000020 f4 fd 23 ba 44 2d 69 bb e2 a8 ca b9 52 3c c4 b7
       -0.00062557985 -0.003557996 -0.0003865427 -2.339311e-05
000030 4a 15 1e ba f0 0e c2 b9 90 f2 0e bb 47 d5 9e 39
       -0.0006030394 -0.00037013693 -0.002181206 0.00030295012
000040 97 4a b1 ba 09 95 78 ba 81 6e 17 3b 5b f4 18 bb
       -0.0013526258 -0.0009482657 0.0023106637 -0.0023339007
000050 38 c6 d9 ba a3 91 fa 38 3e db b3 3a 9d f0 31 ba
       -0.001661486 0.00011948056 0.0013721955 -0.00067878683
000060 9d ab b0 3a 40 bf 5f ba 70 e8 ae 3a 46 96 2a 3a
       0.0013478879 -0.00085352734 0.0013344418 0.0006507378
000070 ab e3 d5 ba 84 35 0a bb bb 08 d5 39 bb 53 63 39
       -0.0016318461 -0.0021089027 0.0004063303 0.00021679599
000080 bd ca 29 bb ed 44 ec b9 88 16 98 39 e2 53 10 3a
       -0.0025908195 -0.0004506478 0.00029008486 0.00055056636
000090 a1 e4 94 b7 29 db e9 ba b8 62 91 3a 3e 06 9d ba
       -1.7749438e-05 -0.0017841804 0.0011092043 -0.001198001
0000a0 04 28 9f ba 6d 27 91 3a 7e 22 25 bb e9 ef e3 ba
       -0.0012142663 0.0011074372 -0.002519756 -0.0017390224
0000b0 95 2f e7 ba c8 6b b5 ba 69 47 b7 3a fa 3f 94 3a
       -0.0017638082 -0.0013841325 0.0013983074 0.001131057
0000c0 97 f1 37 ba bd fd d4 ba 85 32 e7 b9 3f 8d 0c 3b
       -0.00070168957 -0.0016249936 -0.00044097393 0.0021446494
0000d0 1c 5b 05 bb b1 bd b1 39 74 56 38 3a c4 aa 21 ba
       -0.0020348495 0.00033901402 0.00070319255 -0.00061671087
0000e0 46 cb c1 3a a2 75 0c b9 2a 5d 44 3a 87 47 41 3b
       0.0014785312 -0.00013395262 0.0007490689 0.0029492097
0000f0 0c 9b ba b9 01 76 96 3a 9c ab 8d ba 26 92 cf 39
       -0.00035592203 0.001147926 -0.001080859 0.00039591006
000100 1d 3a 14 3a 37 09 da ba 78 96 b9 ba f1 e4 4e ba
       0.00056544115 -0.0016634826 -0.0014159223 -0.00078923913
000110 0d 37 71 3b bd 6c 8c b9 22 46 1a bb d6 6c 1e 38
       0.0036806494 -0.00026783897 -0.0023540338 3.7771497e-05
000120 4c 33 bf ba 19 35 aa ba 2e df ad 3a 6a b2 6c ba
       -0.0014587431 -0.0012985795 0.0013265365 -0.00090292713
000130 d0 f9 dc b9 da 43 3a ba 69 fb 93 ba cd 18 5f 3a
       -0.00042147795 -0.00071054476 -0.0011290136 0.00085104705
000140 d2 e0 09 ba ae a8 ae ba 4b 4a 99 b9 cc 38 16 bb
       -0.0005259636 -0.0013325417 -0.00029237787 -0.0022922037
000150 15 bc c9 ba 9c 98 a0 b9 e1 f8 b7 38 c8 3f 93 3a
       -0.0015391136 -0.0003063128 8.772477e-05 0.0011234218
000160 43 e1 c7 ba 82 e4 9a ba d5 45 13 bb 53 28 77 3a
       -0.0015249628 -0.0011817368 -0.0022472043 0.0009428311
000170 4f 3e d6 39 eb 30 01 bb 70 5d cc b9 67 73 f4 ba
       0.00040863684 -0.0019712995 -0.00038979528 -0.0018650115
000180 fd 8c 6e 3a 37 6b 8d ba 00 da 2c 3a 8e 93 86 ba
       0.00090999884 -0.0010789399 0.0006593764 -0.0010267363
000190 76 4f 2e 3b 28 33 0b bb 36 01 04 bb 22 8b f0 39
       0.0026597655 -0.0021240208 -0.0020142323 0.0004588003
0001a0 a5 a3 b5 ba b6 eb 17 3b 84 42 0f 3b d6 fc 27 b9
       -0.0013857974 0.0023181266 0.0021859715 -0.0001602055
0001b0 c0 af eb b8 98 3c 29 ba 56 03 88 ba f0 75 90 b9
       -0.00011238409 -0.00064558676 -0.0010376971 -0.0002755369
0001c0 7b 9d c6 ba bb 7e a2 3a 65 70 90 bb 00 d0 a0 3a
       -0.0015153134 0.0012397388 -0.0044079297 0.001226902
0001d0 36 2f 0c ba 54 74 67 39 ac 56 8d b6 5d 3f 19 bb
       -0.0005347611 0.00022073212 -4.2122174e-06 -0.0023383715
0001e0 6b 7e 8e ba 53 b9 f7 3a 24 dd 7f ba 3d ef 08 b9
       -0.0010871416 0.0018899835 -0.00097604305 -0.00013059094
0001f0 fd 35 6d 3b 16 a4 9a ba f2 31 b7 ba 4c cd 28 bb
       0.003619551 -0.0011798169 -0.0013976677 -0.0025757132

action_model._continuous_distribution.log_sigma f4 [1, 3]
000000 3b 68 6b bb c3 b7 8c bb 13 ce 38 bc
       -0.003592028 -0.004294367 -0.011279601

action_model._continuous_distribution.mu.weight f4 [3, 128]
000000 66 e0 c9 bc 66 00 1f bc 67 d1 9f bc c5 96 99 bc
       -0.024643134 -0.009704685 -0.01950903 -0.01874865
000010 de db 0b bc cf bc 02 3d a8 06 0e 3c 6d 69 1b 3c
       -0.008536307 0.031918343 0.008668579 0.009485585
000020 1c f4 00 ba 2f b0 92 3b c8 c8 81 bc 39 6b e8 bc
       -0.00049191876 0.004476569 -0.01584281 -0.02837144
000030 b1 f7 3d bc e3 94 c5 bb 21 2c 90 bc 02 a8 10 bc
       -0.011594699 -0.0060297116 -0.017599167 -0.008829119
000040 e5 1c a2 bb 7b 8d 03 3d 93 d3 ca 3c 53 95 9f bb
       -0.004947292 0.03211735 0.02475909 -0.0048700958
000050 0a b3 86 bb b7 50 fd 3c e8 24 af ba 04 d9 66 bc
       -0.0041106986 0.030922277 -0.0013362439 -0.0140898265
000060 da 20 dc 3b d6 ef b3 3c 30 34 20 3d 1d 1f cf bb
       0.0067177834 0.021964949 0.03911227 -0.0063208477
000070 cc cc 83 3c b9 ef 02 bb 08 8b bd 37 ac 24 a1 3c
       0.016088866 -0.0019979312 2.2595297e-05 0.019670807
000080 9b f7 a0 ba 9a 36 71 3c c8 6b 29 3c 68 81 2c bc
       -0.0012280823 0.014722491 0.010340638 -0.0105289
000090 1c 09 64 3c 02 86 93 3b f6 b3 90 bc 61 f9 34 3c
       0.0139181875 0.004502059 -0.017663937 0.011045785
0000a0 de e2 28 bc d7 5e b3 3a 65 71 cb bc 13 e7 80 3b
       -0.010307996 0.0013684881 -0.024834344 0.003933796
0000b0 00 03 58 bc d8 8a dd 3b 23 f0 9f bb 39 91 23 3c
       -0.013184309 0.006760936 -0.0048809214 0.009983354
0000c0 ec cf 28 bc d0 74 1d bc 35 ae a9 3a 3d 41 03 b9
       -0.010303479 -0.00961037 0.0012945594 -0.00012517437
0000d0 f5 bc 99 3c 5d 5f cb bc 8d 90 f0 3c 5c ab f9 3b
       0.01876686 -0.024825746 0.029365802 0.0076193046
0000e0 f2 f4 39 3b dd 4e 0c 3d c9 8a 89 bc e6 0e 61 bc
       0.0028374759 0.034254897 -0.01678981 -0.013736462
0000f0 0f 42 03 bc fa f0 98 bc 8e 46 57 bb 48 b7 f4 ba
       -0.008011355 -0.018669594 -0.003284845 -0.0018670345
000100 ba 87 ec 3b a4 9c c8 3c ba 13 26 3c c7 51 f5 bc
       0.0072183283 0.024488755 0.010136539 -0.029946221
000110 e2 ea 91 3c 65 36 65 bc 30 9e 58 3c b5 00 8e bc
       0.017812196 -0.013990019 0.013221309 -0.017334322
000120 80 d3 6c 3c 62 e0 80 3c aa 5a 9f 3b 9c db 88 bc
       0.014454722 0.015731994 0.004863103 -0.01670628
000130 b3 1a 07 bd 10 09 f7 3c 4b c3 9d 3b d2 b0 e7 bc
       -0.032984447 0.030155689 0.0048145405 -0.028282557
000140 9e bf 84 3c 77 44 c2 3c 0b 51 06 bd ec 33 9d 3c
       0.016204651 0.023714287 -0.032792132 0.019189797
000150 b8 e4 58 bc ad 5f b9 39 a6 98 18 3c 9e ac 61 3c
       -0.013238125 0.00035357234 0.009313738 0.013774065
000160 a1 38 90 3c 26 21 07 3c cb ed 38 3b bb 6b 60 bc
       0.017605128 0.008247649 0.0028217908 -0.01369756
000170 1c a5 a8 3c ae 94 b5 3c 66 db bd 3b a1 ce ee 3a
       0.020586543 0.022165623 0.0057939766 0.0018219539
000180 fd 3b f4 bc f4 71 46 b9 dd 6c 42 bb 52 37 81 bb
       -0.02981376 -0.00018925202 -0.0029666938 -0.0039433623
000190 6c 84 e7 39 52 39 ef 3b fe 61 cb 3b 49 ab 88 bb
       0.00044158415 0.0073005343 0.00620675 -0.0041708094
0001a0 75 44 da 3b bf 5a 72 3c 87 84 4c bc 42 e2 c9 bc
       0.0066609927 0.014792143 -0.012482769 -0.024644021
0001b0 87 22 d6 3c 70 f2 42 3c 5a 2a a7 3b ba d7 8d bc
       0.02613951 0.011898622 0.0051014842 -0.01731478
0001c0 e3 d7 20 3b 92 10 3b 3b 08 61 1e 3b 8e 31 bd 3b
       0.002454274 0.0028543812 0.0024166722 0.0057737296
0001d0 12 25 c2 3b ce fb c1 bc 16 f7 e7 3c ff c4 db bc
       0.0059248293 -0.02367964 0.028316062 -0.026827333
0001e0 38 60 f9 bc 6d 6a 16 3c a1 1d 67 bb c6 6c 17 bd
       -0.030441388 0.009180647 -0.0035265463 -0.03696897
0001f0 dc f6 fb 3a ba 77 59 bc 24 0b c4 3b 43 14 0b bd
       0.001922335 -0.013273174 0.0059827734 -0.03395487
000200 7d 02 a7 bc 0e ee 10 bd 42 34 eb bb e0 6e 49 bb
       -0.020386929 -0.035383277 -0.0071778605 -0.0030736253
000210 2d 57 8f 3c c8 0a 6b 3c 26 c5 07 bd 9f 9b 91 3c
       0.017497623 0.014345832 -0.033147 0.017774401
000220 47 ac d4 3a f7 ee bf 3b 56 ad ef bb 49 2f ec 3b
       0.0016225659 0.0058573443 -0.0073143644 0.0072077853
000230 3d 63 8c 3b 6a d1 aa 3c 08 0a 75 3c 4a 06 09 3c
       0.004284291 0.02085181 0.014956005 0.008363316
000240 13 36 d2 3a 59 06 04 3d 21 29 00 3c e2 fb 1f 3d
       0.0016037844 0.032232616 0.007822306 0.039058574
000250 e1 3e 46 bc 35 0a 9d 3c 48 4e bf 3b 9c 04 5f 3c
       -0.012099952 0.019169906 0.0058381893 0.013611939
000260 02 4a 3c bc 47 ea d7 3b 82 61 4e bc a2 3b 34 bd
       -0.011492254 0.0065892073 -0.01259649 -0.044002183
000270 77 23 ff bb 68 02 1c 3b 8b b3 79 ba 35 b1 4c bd
       -0.00778621 0.0023805145 -0.000952535 -0.049973685
000280 92 7d be 3c ba 4e d2 bb bd 02 38 bc f8 f9 6a bc
       0.023253236 -0.0064180763 -0.011231122 -0.014341824
000290 7a 85 97 3c 2a ab c5 bc fe 2a 86 bc 20 59 17 3d
       0.018496264 -0.024129469 -0.016377922 0.03695023
0002a0 d2 8b d8 3a 63 b1 11 bb ed c1 af 3c 5d a0 77 3c
       0.0016521162 -0.0022230975 0.021454776 0.015113917
0002b0 f4 df 94 3c 1f 90 f2 3b c0 ba 97 bc 07 ca e1 bc
       0.018173195 0.0074024345 -0.018521667 -0.027562154
0002c0 25 79 6d 3b 4c f1 9c 3c 65 fe 32 3c 3d 0e cb bc
       0.0036235538 0.019158028 0.01092491 -0.024787063
0002d0 7f 93 7e 3b 5b ab bb bc 44 e7 bf bb cd df 07 bd
       0.0038845239 -0.022908857 -0.0058564264 -0.033172417
0002e0 e7 ae 91 bb 8c e5 57 bc 1d 65 55 bc 0d 39 42 bd
       -0.004445899 -0.013177287 -0.013024596 -0.04741769
0002f0 27 4d 90 bb f0 9e 20 bc 13 94 2d bb 36 dd 57 bc
       -0.0044037285 -0.009803519 -0.0026485964 -0.013175299
000300 1b e6 2d bd ab 0c b0 3c cb 10 5b 3c 7a 4f 91 3c
       -0.042455774 0.021490416 0.013370703 0.017738093
000310 c3 48 58 3c 5b a5 af 3b 13 d6 97 3a 5f dc 82 3c
       0.0132009415 0.005360288 0.0011584185 0.015974222
000320 4d ca e2 bc a7 94 cb bb 5f 26 3c bc 27 02 6e 3a
       -0.027684355 -0.006212789 -0.011483758 0.00090793
000330 af e8 ae bc b9 a7 87 3c 12 3b 9c bc 58 b9 5d bc
       -0.021351187 0.016559469 -0.019071136 -0.013532959
000340 b3 14 82 3b 71 70 c5 3c 17 6d 9e bb 9c 2d 21 3b
       0.0039697527 0.024101468 -0.004834782 0.0024593836
000350 c6 b8 ae bb 7e a0 ef bb b3 4b c8 3c e2 30 d3 bc
       -0.0053320853 -0.0073128333 0.024450159 -0.025780145
000360 6d 04 29 3c 34 7a 29 bc d2 d7 b8 3b 4c a6 c1 bc
       0.010315997 -0.010344077 0.005640962 -0.023638867
000370 83 43 35 bb ce 0d e2 bb 41 db 87 bc c8 61 06 3c
       -0.0027658648 -0.0068986183 -0.01658404 0.008202024
000380 71 46 23 bc 5e b1 97 bb 23 f0 2c bc b3 e8 04 3b
       -0.009965525 -0.004629298 -0.0105553 0.00202803
000390 6d 73 a6 bc be 01 d8 3c 76 d6 4b bb 90 79 5e bc
       -0.020318711 0.026368018 -0.003110317 -0.013578787
0003a0 76 28 40 3c 12 1b af bc c8 8b 91 bc 60 bf d8 3b
       0.011728397 -0.021375213 -0.017766848 0.0066146106
0003b0 33 98 a9 3c 68 a6 e0 bc a4 49 89 3c df 4d a0 bc
       0.020702457 -0.027423099 0.016758747 -0.019568382
0003c0 c8 e7 60 bc 0b 0f 43 bc 08 ad 09 bc eb 1c 99 bc
       -0.013727136 -0.011905442 -0.00840307 -0.018690547
0003d0 a6 27 40 bc d1 94 e5 ba 6e a7 83 3b 63 c9 ae 3c
       -0.011728203 -0.0017515664 0.004017762 0.021336263
0003e0 15 5c d3 3c d7 bd da bc 0e e8 5e 3c e5 3d d1 3c
       0.025800744 -0.02670185 0.013605131 0.025542209
0003f0 f1 5b 5a 3b fc 82 cb 3a 57 5e 41 bc 60 c7 aa 3b
       0.0033318962 0.0015526707 -0.0118022775 0.0052117556

action_model._continuous_distribution.mu.bias f4 [3]
000000 bf 3e 57 b9 5e 04 9c ba 7f b8 87 39
       -0.00020527373 -0.0011903157 0.00025886667
